siren/best_siren_classifier.pth (torch, 419416 bytes, 25 tensors)

conv_layers.0.weight f4 [32, 1, 3, 3]
0	0x3e748378	0.23878276
1	0x3eb5bf86	0.35497683
2	0xbdbb9e33	-0.091610335
3	0x3e155ab5	0.14585383
4	0xbdd151b7	-0.10220664
5	0xbcd8b3e0	-0.026452959
6	0xbe6bf7d0	-0.23043752
7	0x3e466bc1	0.19377042
8	0x3e9c1527	0.30484888
9	0xbe89f211	-0.26942495
10	0x3eabd05a	0.33557397
11	0x3e09062f	0.13381265
12	0x3d72d665	0.059286494
13	0xbdd1cf37	-0.10244601
14	0x3d594018	0.05303964
15	0xbe22e2ce	-0.15906832
16	0x3e5836b6	0.2111462
17	0x3e24137d	0.16023059
18	0xbe669e9a	-0.22521439
19	0x3bd65d12	0.0065418566
20	0xbe4bf5d7	-0.19917999
21	0xbdef4045	-0.1168218
22	0xbe48c8e5	-0.19607885
23	0x3e339dd6	0.17540678
24	0xbe34f0b6	-0.17669949
25	0xbe218e95	-0.15777047
26	0xbd76e159	-0.060273502
27	0xbe5cc155	-0.21558125
28	0x3b923a1b	0.004462493
29	0xbea67549	-0.32511356
30	0x3e9a5366	0.30141753
31	0xbe8fcb76	-0.28084916
32	0x3e8ed60c	0.2789768
33	0x3d8976ba	0.067120984
34	0xbde38e0c	-0.11111078
35	0x3e67b9a2	0.22629407
36	0x3d9160f1	0.07098568
37	0x3ea4c26b	0.3217958
38	0x3d1a2ad7	0.03763851
39	0xbdf263a1	-0.11835409
40	0x3dba5960	0.09099078
41	0xbd96a6af	-0.07356011
42	0x3ca34812	0.019931827
43	0x3e825bab	0.25460562
44	0x3e801de6	0.2502281
45	0xbe28a089	-0.1646749
46	0x3e3dc447	0.18531905
47	0x3d52c2b6	0.051455222
48	0x3e087912	0.13327435
49	0xbe5e8822	-0.21731618
50	0xbeb2607d	-0.3483924
51	0xbe2ac4b8	-0.16676605
52	0xbe8acf4f	-0.2711129
53	0x3e8551f1	0.2603908
54	0x3dd87aae	0.10570274
55	0x3e172fad	0.1476428
56	0x3e55d2fe	0.20881268
57	0xbd9199cf	-0.07109415
58	0x3e4b5433	0.19856338
59	0xbe41688a	-0.18887535
60	0xbdbce03f	-0.09222459
61	0xbe964a82	-0.2935372
62	0x3d498ae0	0.049204707
63	0xbe00fd0c	-0.1259653
64	0x3d9bf2f5	0.076147
65	0xbdc5f2b5	-0.09665433
66	0x3e946869	0.2898591
67	0xbe371163	-0.17877726
68	0xbe36f326	-0.17866191
69	0xbe2cb1fd	-0.16864772
70	0x3eae423e	0.34034914
71	0x3e274ad9	0.16337146
72	0x3e9f0f73	0.31066474
73	0xbe920cce	-0.28525394
74	0xbeb9e8c3	-0.36310396
75	0xbe8ce218	-0.27516246
76	0xbe835de6	-0.25657576
77	0x3dc40056	0.095703766
78	0x3de18d47	0.11013275
79	0x3e76a9eb	0.24088256
80	0xbe5f7a99	-0.21824111
81	0xbe7fab2e	-0.24967644
82	0x3e36f55e	0.17867038
83	0xbdbd3769	-0.09239084
84	0x3e30b977	0.17258249
85	0xbd8cbacf	-0.068715684
86	0x3e68ec11	0.22746302
87	0xbe8cc87b	-0.27496704
88	0xbe265b9b	-0.16245882
89	0x3e0c5bc4	0.13706881
90	0x3db13f55	0.08654658
91	0xbdd58d65	-0.104273595
92	0x3e142a78	0.14469326
93	0x3e7d225f	0.24720143
94	0xbe79abcd	-0.24381943
95	0xbe3d9068	-0.18512118
96	0x3eaa3e57	0.33250687
97	0xbded8a5a	-0.11598654
98	0xbe13b535	-0.14424594
99	0xbeb236e9	-0.34807518
100	0xbe4a3a78	-0.19748867
101	0x3e1b2daf	0.15154146
102	0xbe089a62	-0.13340142
103	0xbe653cc3	-0.2238646
104	0x3e049759	0.1294836
105	0xbe42ee36	-0.19036183
106	0xbe3cf37a	-0.18452254
107	0x3a08eef9	0.0005223598
108	0xbe8ad18c	-0.27112997
109	0xbe52a413	-0.20570402
110	0x3eb315f9	0.349777
111	0x3dafebbb	0.08589884
112	0x3dfd04f2	0.12354459
113	0xbe9d9ad8	-0.307822
114	0xbe558d86	-0.20854768
115	0xbdd8badf	-0.10582518
116	0x3d5d23ec	0.053989336
117	0xbea40a70	-0.32039213
118	0xbe27628a	-0.16346183
119	0xbdaede23	-0.08538463
120	0xbd478bdc	-0.048717365
121	0xbe2ada36	-0.16684803
122	0x3dd32a0a	0.10310753
123	0xbe81d119	-0.2535484
124	0xbe7e5595	-0.24837334
125	0xbd8fc0e9	-0.070192166
126	0xbe1d61c7	-0.1536933
127	0xbe884ec8	-0.26622605
128	0x3e9ba8b7	0.30402157
129	0xbdd198af	-0.102342
130	0x3e85f4a4	0.26163208
131	0x3df3f6b8	0.11912292
132	0xbe958e06	-0.29209918
133	0x3e6766fe	0.22597882
134	0xbd89f2b2	-0.067357436
135	0xbe863ceb	-0.26218352
136	0xbeb35547	-0.35026
137	0xbedbaff2	-0.42907673
138	0x3d979c8b	0.07402905
139	0xbdbb4f83	-0.09146025
140	0x3dbe254a	0.09284456
141	0xbe274d1a	-0.16338006
142	0x3ea65917	0.32489845
143	0xbdeb3707	-0.11485105
144	0x3c11a4ae	0.00888936
145	0x3e04681b	0.12930338
146	0x3e38c550	0.18044019
147	0x3e76ea2b	0.24112765
148	0x3e8d6819	0.27618483
149	0xbe9ec7a4	-0.3101169
150	0x3d6a4194	0.057191446
151	0xbdf7fee4	-0.121091634
152	0xbcea024a	-0.028565545
153	0xbe840049	-0.25781468
154	0x3e995af4	0.29952204
155	0xbe7e81dc	-0.24854225
156	0x3da0789f	0.07835507
157	0x3d7ed6c1	0.062216524
158	0x3ce9f26c	0.028557979
159	0xbe35567d	-0.17708774
160	0x3ec8b4d2	0.39200455
161	0x3e3b5ac3	0.18296342
162	0x3d3c40de	0.0459603
163	0xbe7f7d3b	-0.24950115
164	0x3e5750a3	0.21026854
165	0xbd9f6ab0	-0.07784021
166	0xbe270449	-0.16310228
167	0x3e9e3046	0.30896205
168	0x3d8cc780	0.06873989
169	0xbe32098f	-0.17386459
170	0xbe0dbbda	-0.13841191
171	0x3cd8126e	0.026375975
172	0x3e2bf731	0.16793515
173	0xbdd95acc	-0.10613021
174	0xbe2d42a5	-0.16919954
175	0xbe02b91d	-0.12765928
176	0xbea15ab2	-0.31514508
177	0x3e194290	0.14966798
178	0x3e74fa4f	0.2392361
179	0xbea13a27	-0.3148968
180	0x3dcde0b7	0.100526266
181	0x3ea57c3b	0.32321343
182	0x3e565233	0.20929794
183	0xbe225a00	-0.15854645
184	0x3df4cec7	0.11953502
185	0x3e24628e	0.1605322
186	0xbb53783e	-0.0032267715
187	0xbdc597aa	-0.09648068
188	0xbd7eea15	-0.062234957
189	0x3d83fe36	0.06444971
190	0xbd38e485	-0.04513981
191	0xbdea497a	-0.11439796
192	0x3e9005e3	0.2812949
193	0x3e8f51a7	0.27991983
194	0xbce125ec	-0.027483903
195	0xbdd0ac8a	-0.10189159
196	0xbd030456	-0.031986557
197	0xbca3cd6d	-0.019995416
198	0x3de01b90	0.10942757
199	0x3dc24580	0.09485912
200	0xbe9c4527	-0.3052151
201	0xbe118911	-0.14212443
202	0x3e72fb29	0.23728622
203	0x3db619e1	0.08891655
204	0xbd17bcad	-0.03704517
205	0xbe897880	-0.26849747
206	0xbe8d06a4	-0.2754413
207	0xbe9a4170	-0.3012805
208	0xbe119120	-0.14215517
209	0x3ddd7e23	0.10815074
210	0x3e4d250c	0.20033664
211	0x3e009e53	0.12560396
212	0xbe9c30ea	-0.30506068
213	0xbe6da569	-0.2320763
214	0xbdafa43f	-0.08576249
215	0x3ea3d0d5	0.31995264
216	0x3da64e1b	0.08120366
217	0xbd5b4c71	-0.053539697
218	0x3e1a9b7f	0.1509838
219	0xbdbfedd4	-0.09371534
220	0xbe2f9820	-0.17147875
221	0x3e6a627f	0.22889136
222	0xbe413636	-0.18868336
223	0xbdcf6cfc	-0.10128209
224	0xbee4b63e	-0.4467029
225	0x3e29754b	0.1654865
226	0x3e552cc0	0.20817852
227	0x3db6fe00	0.089351654
228	0xbe969c6b	-0.29416212
229	0xbeb58624	-0.35453904
230	0xbe9d3c9a	-0.30710298
231	0x3e5ad484	0.21370131
232	0x3e20d6de	0.15706965
233	0x3e882447	0.26590177
234	0x3e4c0a09	0.19925703
235	0x3df9c234	0.121952444
236	0x3d79c02f	0.060974296
237	0xbe8a67fc	-0.2703246
238	0xbe60fd5f	-0.21971653
239	0xbe6e13d8	-0.23249757
240	0x3d46066a	0.04834596
241	0xbe792be3	-0.24333148
242	0xbde47e43	-0.11156895
243	0xbe7fdcf7	-0.24986635
244	0xbcfad138	-0.030617341
245	0xbe3872c1	-0.18012525
246	0xbe6c4818	-0.23074377
247	0x3e0da295	0.13831551
248	0xbd0eed34	-0.034894183
249	0x3e621d56	0.22081503
250	0xbdd25676	-0.10270397
251	0xbe5f8ede	-0.21831843
252	0xbdbb6e7c	-0.091519326
253	0xbe1f1d3c	-0.15538496
254	0xbdbabe10	-0.09118283
255	0xbe96119e	-0.29310316

conv_layers.0.bias f4 [32]
0	0xb8921795	-6.966215e-05
1	0x3a0f6bd3	0.0005471084
2	0xb7bd59d0	-2.2572378e-05
3	0x3a69c683	0.0008917825
4	0xb85db88f	-5.286239e-05
5	0x37a0d731	1.9173693e-05
6	0xba329b04	-0.000681326
7	0xb97c4afc	-0.00024060527
8	0xb7c5169e	-2.3494762e-05
9	0x399d8c02	0.00030049687
10	0xba726799	-0.00092470046
11	0x37f79381	2.9513381e-05
12	0x391924b1	0.00014604886
13	0x37a7cf2c	2.0004423e-05
14	0xb9ca5aa4	-0.00038595975
15	0x37e2121e	2.6949736e-05
16	0xb87ff0bb	-6.1020935e-05
17	0xb9077615	-0.00012918592
18	0x39805013	0.00024473722
19	0x37a47496	1.9604613e-05
20	0xb8724151	-5.7758127e-05
21	0x3a2fc090	0.0006704414
22	0x388cc25b	6.711922e-05
23	0xb90ec3f0	-0.00013615168
24	0xb782c609	-1.5589425e-05
25	0xb86f601a	-5.7071542e-05
26	0x38542b6d	5.0585182e-05
27	0x38f8aedb	0.00011858131
28	0xb60cb992	-2.0969642e-06
29	0xb907685f	-0.00012913485
30	0x3997afe5	0.00028932016
31	0xb84dee68	-4.9097842e-05

conv_layers.1.weight f4 [32]
0	0x3f8a5a72	1.0808852
1	0x3f8532ce	1.0406129
2	0x3f4ae8a7	0.7926125
3	0x3f813c62	1.0096552
4	0x3f88296a	1.0637639
5	0x3f5d6c0a	0.8649298
6	0x3f986efc	1.190887
7	0x3f811f9c	1.0087771
8	0x3f3eaaca	0.74479353
9	0x3f584a06	0.8448795
10	0x3f8f9258	1.1216536
11	0x3f508839	0.8145786
12	0x3f643384	0.89141107
13	0x3f4164f8	0.7554469
14	0x3f88fc33	1.0701965
15	0x3f32d8f2	0.6986228
16	0x3f82f939	1.0232307
17	0x3f8423af	1.032339
18	0x3f5ed1e2	0.87039006
19	0x3f43e208	0.7651677
20	0x3f87c9a1	1.0608407
21	0x3f8615f0	1.0475445
22	0x3f55113a	0.8322941
23	0x3f620005	0.8828128
24	0x3f4a3d55	0.78999835
25	0x3f82e495	1.0226008
26	0x3f4e2211	0.8052073
27	0x3f52fcb5	0.8241685
28	0x3f8fb3f6	1.1226795
29	0x3f7fffd0	0.99999714
30	0x3f78f04d	0.9724167
31	0x3f553a05	0.83291656

conv_layers.1.bias f4 [32]
0	0xbe36056c	-0.17775506
1	0xbe311cad	-0.17296095
2	0xbe257660	-0.16158438
3	0x3e91821a	0.28419572
4	0xbe2b7332	-0.16743162
5	0xbd9027b4	-0.07038823
6	0xbc34ff56	-0.011047205
7	0xbe26e6e8	-0.16299021
8	0xbdd29c79	-0.10283751
9	0xbe002629	-0.12514557
10	0xbd9ac4f6	-0.075570986
11	0xbe14c0f0	-0.14526725
12	0xbd76c10c	-0.060242698
13	0xbdcf3d54	-0.10119119
14	0xbe131b11	-0.14365794
15	0xbe2cb913	-0.16867475
16	0xbe4b138e	-0.19831678
17	0xbe882476	-0.26590317
18	0xbdb5da20	-0.08879495
19	0xbe2d418c	-0.16919535
20	0xbe706794	-0.23477012
21	0xbe45e347	-0.1932498
22	0xbdd94398	-0.106085956
23	0xbdbedad5	-0.09319083
24	0xbe1f5507	-0.15559779
25	0xbde29aef	-0.110647075
26	0xbe09ea0d	-0.1346819
27	0xbd4e8035	-0.050415237
28	0xbd6abfe5	-0.05731191
29	0x3d07e0a5	0.033173222
30	0xbe776fab	-0.24163692
31	0xbd1c4cf7	-0.038159337

conv_layers.1.running_mean f4 [32]
0	0x3bd974fd	0.0066362605
1	0x3b158d84	0.0022819946
2	0xbba5634a	-0.0050472366
3	0xbc083977	-0.008314482
4	0x3b83a41f	0.0040173675
5	0x3af6d840	0.0018832758
6	0x3c08aaaf	0.008341475
7	0xbb90fcd6	-0.0044246716
8	0xbbc5de32	-0.0060384506
9	0xba8786dd	-0.0010339875
10	0x3ad3ddc6	0.0016164116
11	0xbb9cfe16	-0.0047910316
12	0xba9b730a	-0.0011859846
13	0xbbd6e7f4	-0.0065584127
14	0xbad0278e	-0.0015880929
15	0xbc8be793	-0.017078197
16	0x3bb8fa4e	0.005645073
17	0xbbbbb9fa	-0.0057289572
18	0x3aeb7d60	0.0017966442
19	0x3a392dda	0.00070640224
20	0x3c322562	0.010873171
21	0xb8129d35	-3.4955523e-05
22	0x3aa3b4cd	0.0012489796
23	0xbbbb5444	-0.0057168324
24	0x3bd09bf6	0.0063662482
25	0x3b80b12b	0.00392737
26	0x3bf4bdaf	0.007468901
27	0xbbe5247d	-0.006992875
28	0xbc16b02a	-0.009197274
29	0xba2261f7	-0.00061944075
30	0x3b405c65	0.0029351946
31	0xbbc3954b	-0.005968725

conv_layers.1.running_var f4 [32]
0	0x3f0e3d56	0.5556234
1	0x3e354dcc	0.17705458
2	0x3f4a77cf	0.79089063
3	0x3d359a09	0.044336352
4	0x3f25b2cd	0.64725953
5	0x3e8fff3e	0.28124422
6	0x3d4757a8	0.04866758
7	0x3d1937a7	0.03740659
8	0x3ed01312	0.4063955
9	0x3d1b1a5d	0.03786694
10	0x3d0b05d2	0.033941098
11	0x3f66b029	0.9011255
12	0x3e61e8f0	0.22061515
13	0x3fb003c4	1.3751149
14	0x3d11c7c1	0.03559089
15	0x3f4be035	0.7963899
16	0x3e444239	0.19165887
17	0x3e252876	0.16128716
18	0x3d3b7d7b	0.045773964
19	0x3e6391dd	0.22223611
20	0x3eb6a79f	0.3567476
21	0x3dcc832e	0.09985958
22	0x3e72006e	0.23632976
23	0x3dd495bd	0.10380123
24	0x3ebd44bd	0.36966506
25	0x3daa19a3	0.08305671
26	0x3ee2b916	0.44281834
27	0x3ed5677b	0.41680512
28	0x3dbeaf1b	0.093107425
29	0x3d0817f2	0.03322596
30	0x3e2f0eb0	0.17095447
31	0x3f27b1ac	0.6550548

conv_layers.5.weight f4 [64, 32, 3, 3]
0	0x3d3cd103	0.046097767
1	0x3dfd044d	0.12354336
2	0x3dcedd63	0.1010082
3	0x3d97ebde	0.07418035
4	0x3d38e4e1	0.04514015
5	0x3cf64c01	0.030065538
6	0xbdcb62c7	-0.0993095
7	0xbdb10fa1	-0.08645559
8	0xbd29c673	-0.04144902
9	0x3ce8b779	0.0284078
10	0x3ded09d1	0.11574138
11	0x3cff86fa	0.031192292
12	0xb821ee42	-3.8607286e-05
13	0x3bc79ecb	0.0060919276
14	0x3d32b44f	0.043628987
15	0xbddb220d	-0.10699854
16	0xbced053a	-0.028933156
17	0x3ccbcf29	0.024879055
18	0xbce34693	-0.027743613
19	0xb8210e86	-3.8398917e-05
20	0x3c35aac4	0.011088077
21	0xbbad1a36	-0.0052826656
22	0xbc6a8adc	-0.014315333
23	0xbd109f1b	-0.035307985
24	0xbd9e45c7	-0.07728153
25	0xbcbc30fc	-0.022972576
26	0x3cfd0853	0.030887758
27	0xbcf64230	-0.030060858
28	0xbdc04aaa	-0.09389241
29	0xbc959cfe	-0.018263336
30	0xbce796c5	-0.028270135
31	0xbc00aaf5	-0.007853259
32	0x3d8531b3	0.0650362
33	0x3b69ccc4	0.0035675028
34	0xbd5374e5	-0.05162515
35	0xbc9bb1a6	-0.019005608
36	0x3e13ba56	0.1442655
37	0x3dafa818	0.08576983
38	0x3d335f3d	0.043792
39	0x3d93f896	0.072251484
40	0x3c836b84	0.016042478
41	0x3d4cb45f	0.049976703
42	0xbdc17b20	-0.09447312
43	0xbdaf5ffe	-0.08563231
44	0x39e3dac2	0.000434598
45	0x3c93fbf2	0.018064473
46	0x3ccf7bca	0.025327582
47	0xbcdbef81	-0.026847603
48	0xbd3a08ac	-0.045418426
49	0x3c0a23e1	0.008431406
50	0x3cc9a1ec	0.024613343
51	0xbb8a8004	-0.0042266864
52	0xbd0b8c8e	-0.03406959
53	0xbd0a4a55	-0.033762295
54	0xbd89888f	-0.067154996
55	0xbd5368b9	-0.051613543
56	0xbd9f99d1	-0.0779301
57	0x3e028dbd	0.12749381
58	0x3df89b0d	0.121389486
59	0x3d3d9305	0.046282787
60	0x3dd1e1e1	0.10248161
61	0x3d277025	0.040878434
62	0x3dd63293	0.10458865
63	0x3d90b00a	0.07064827
64	0x3ced70bd	0.028984422
65	0x3db8b2eb	0.09018501
66	0xbdc369c3	-0.09541657
67	0xbd583ccf	-0.052792367
68	0x3d01353a	0.0315449
69	0xbdfd41d5	-0.12366072
70	0xbe074be8	-0.1321255
71	0xbe0fd21c	-0.14044994
72	0x3d4119e4	0.04714383
73	0x3d04b1e9	0.03239623
74	0x3c858e65	0.01630325
75	0xbcd17378	-0.025567755
76	0xbc9eb498	-0.019373223
77	0xbcc24214	-0.02371315
78	0x3c931263	0.017953103
79	0xbcba15e2	-0.022715513
80	0xbc77fbee	-0.015135748
81	0x3d3431f2	0.043992944
82	0x3cfeb36a	0.03109141
83	0x3c468b68	0.012118198
84	0xbc90efde	-0.017692503
85	0xbd022aa6	-0.031778954
86	0xbd04e651	-0.03244621
87	0xbd8983af	-0.0671457
88	0xbd26c495	-0.04071482
89	0xbc14a377	-0.009072176
90	0x3bd0447a	0.0063558193
91	0xbda7bcb6	-0.08190291
92	0x3db13ac0	0.08653784
93	0xbd3ea65b	-0.046545368
94	0xbdca9d44	-0.09893277
95	0xbdab23c5	-0.08356432
96	0xbddc43a2	-0.107550874
97	0xbe009eaf	-0.12560533
98	0xbda2b976	-0.0794553
99	0xbc522221	-0.01282552
100	0x3c561d19	0.013068461
101	0x3b7db1a5	0.003871062
102	0xbd065c78	-0.03280303
103	0x3d2a1db4	0.041532233
104	0x3d82dda6	0.06389932
105	0x3c0ae03d	0.008476314
106	0xbc7fea97	-0.015619895
107	0xbcffa170	-0.03120491
108	0x3c50b41c	0.012738254
109	0x3d159f9f	0.03652918
110	0x3d266a56	0.040628754
111	0xbcc61226	-0.024178576
112	0xbc5e33b4	-0.013562132
113	0x3ccc018a	0.024903078
114	0xbd5b5467	-0.05354729
115	0x3ce7c908	0.028294101
116	0xbd04f74f	-0.032462414
117	0xbb3d33c7	-0.0028869973
118	0x3c316759	0.010827863
119	0x3c477c9e	0.012175707
120	0xbbff863c	-0.0077979844
121	0x3d81bbe8	0.063346684
122	0x3c95aea8	0.01827176
123	0x3ce98cfd	0.028509611
124	0x3d38ca14	0.04511459
125	0xbce1146a	-0.027475554
126	0xbd33cdee	-0.04389756
127	0xbd34cc21	-0.044139985
128	0xbdb8e867	-0.09028702
129	0xbda13ea6	-0.07873277
130	0xbd666cbb	-0.056256037
131	0xbd6182ae	-0.055056266
132	0xbdc4df23	-0.096128725
133	0xbd0da1d5	-0.034578163
134	0xbc6efed9	-0.014587128
135	0xbc4687ea	-0.012117365
136	0xbc9b913d	-0.018990153
137	0x3d2fb958	0.042901367
138	0x3cc5c537	0.02414189
139	0x3c9b648e	0.018968847
140	0x3c4aee25	0.01238588
141	0x3c3086cd	0.0107743265
142	0x3d143d9d	0.03619157
143	0xbca01448	-0.01954092
144	0x3ddd47bc	0.10804698
145	0x3d937300	0.07199669
146	0x3ca86801	0.020557405
147	0x3d12ce66	0.03584137
148	0x3d41f727	0.047354843
149	0x3d826343	0.06366589
150	0xbbace1c0	-0.005275935
151	0xbd1a5f25	-0.037688393
152	0x3d0f645b	0.035007816
153	0x3ce2d9f9	0.027691828
154	0x3c888dd4	0.016669191
155	0x3d859503	0.06522562
156	0xbd826f5b	-0.063688956
157	0xbd31b4fb	-0.043385487
158	0x3cf93f8f	0.030425815
159	0xbdfdc15a	-0.123903945
160	0xbdea0807	-0.11427312
161	0xbdbbcc7a	-0.0916986
162	0x3b63fd2e	0.0034788358
163	0x3d183909	0.037163768
164	0xbce765f1	-0.028246852
165	0xbce605ca	-0.028078932
166	0x3d56ead2	0.052470036
167	0x3cbe0e4e	0.02320018
168	0x3c79d5bf	0.015248715
169	0x3d48e6ef	0.04904836
170	0xbbf43beb	-0.007453432
171	0x3d50b1d9	0.05095086
172	0x3d3955d2	0.04524786
173	0xbc0c6323	-0.008568558
174	0xbc10b0fc	-0.008831259
175	0x3ba939b2	0.0051643485
176	0x3b1491b1	0.0022669847
177	0x3d15688f	0.036476668
178	0xbd3b87fc	-0.04578398
179	0xbd542486	-0.051792644
180	0x3d66d634	0.056356624
181	0x3d736181	0.05941916
182	0xbbe263e5	-0.006908881
183	0x3deb96a8	0.11503345
184	0x3db762df	0.08954405
185	0x3dbb2a38	0.09138912
186	0xbd9610c2	-0.07327415
187	0xbc532cec	-0.012889128
188	0x3d348697	0.044073667
189	0x3dc869ae	0.09785782
190	0x3dcde7f2	0.10054006
191	0x3cd73126	0.026268553
192	0x3d4f51b1	0.050615016
193	0xbd5342c0	-0.05157733
194	0x3d342bcd	0.043987084
195	0xbdd45293	-0.10367312
196	0xbccb2b76	-0.024800997
197	0xbd8631ae	-0.065524444
198	0x3ccd3234	0.025048353
199	0xbaf30ca7	-0.0018543199
200	0xbc31e92e	-0.010858817
201	0x3d45233c	0.048129305
202	0x3c089823	0.0083370535
203	0x3d03e3c3	0.032199632
204	0x3c1ef185	0.009701137
205	0xbd8a46ea	-0.06751807
206	0xbcc05dd7	-0.023482246
207	0xba9569d5	-0.0011399338
208	0xbbd06c24	-0.0063605476
209	0xb9cf567a	-0.00039546547
210	0xbc232f0c	-0.009959947
211	0xbc3ddec9	-0.011588761
212	0xbaff9a9d	-0.0019501034
213	0x3d2437c7	0.040092256
214	0x3d548bda	0.051891185
215	0xbb7484a1	-0.0037310498
216	0xbd3a02fe	-0.04541301
217	0x3cf48530	0.029848665
218	0xbd05deed	-0.0326833
219	0x3d0f34db	0.034962516
220	0xbca2fb58	-0.01989524
221	0x3c2975bb	0.010343011
222	0xbd4de582	-0.050267704
223	0x3986f26b	0.00025739087
224	0xbbe989cc	-0.0071270224
225	0x3d491fce	0.049102597
226	0x3d7fdeef	0.062468465
227	0x3dd54a3c	0.1041455
228	0xbc165b19	-0.009176993
229	0xbd2b10e6	-0.041764162
230	0xbcaa4a26	-0.02078731
231	0xbc8c8d64	-0.017157264
232	0xbd570b38	-0.052500933
233	0x3c08e25d	0.00835475
234	0x3a338d7c	0.0006849391
235	0xbca53f9c	-0.020171933
236	0x3cd145a2	0.025545899
237	0x3b9f2115	0.0048562386
238	0x3d4aaf53	0.04948361
239	0x3d665a40	0.056238413
240	0x3c7bf3e4	0.015377972
241	0x3cad1f5d	0.02113312
242	0xbd169abc	-0.03676866
243	0xbd067eb2	-0.03283567
244	0xbbdb8f96	-0.0067004664
245	0xbd32ac69	-0.043621454
246	0xbd431e90	-0.04763657
247	0xbc88ca61	-0.016698064
248	0xbd11a280	-0.035555363
249	0xbd454394	-0.04816015
250	0xbcdfc66a	-0.02731629
251	0xbd372433	-0.044712257
252	0xbd2158a7	-0.039391186
253	0x3b322be4	0.0027186805
254	0x3d0c21ef	0.03421205
255	0xbe09481f	-0.13406418

conv_layers.5.bias f4 [64]
0	0x38103bc1	3.4387926e-05
1	0x380d4eb2	3.369031e-05
2	0xb86d65d1	-5.6600027e-05
3	0xb71c29f2	-9.308091e-06
4	0x38467584	4.7316324e-05
5	0xb679c82f	-3.7220414e-06
6	0xb81ce2eb	-3.7404632e-05
7	0x37c31212	2.3254226e-05
8	0xb69b2507	-4.6236705e-06
9	0x38cd5ffd	9.793041e-05
10	0xb90102e8	-0.00012303481
11	0xb5c0121f	-1.4310389e-06
12	0x36da595b	6.5073086e-06
13	0xb778cbd8	-1.4829413e-05
14	0xb6926fdc	-4.364161e-06
15	0x3756f6db	1.28128695e-05
16	0x37b613f0	2.1705375e-05
17	0x38c1dd76	9.2442075e-05
18	0xb8a71be5	-7.968376e-05
19	0xb8713d67	-5.7516063e-05
20	0xb7f5fcec	-2.9324052e-05
21	0x38214d6d	3.84575e-05
22	0x37d6f3d6	2.5624333e-05
23	0x38270ffa	3.9830782e-05
24	0xb82c78ee	-4.112062e-05
25	0x384f2e8b	4.9395992e-05
26	0x38950723	7.106203e-05
27	0x36a5fa35	4.946511e-06
28	0x360bc499	2.082705e-06
29	0x37e827a5	2.7675016e-05
30	0x370db264	8.44579e-06
31	0xb7c03091	-2.2910799e-05
32	0x37aef4bf	2.0856385e-05
33	0x37a4176b	1.9561228e-05
34	0x3854eca7	5.076514e-05
35	0x37ee5db3	2.8415443e-05
36	0x38604b01	5.3475615e-05
37	0xb8174973	-3.606961e-05
38	0x3890adcf	6.8988295e-05
39	0xb74133d9	-1.1515768e-05
40	0xb7171b56	-9.006666e-06
41	0x36621602	3.3689435e-06
42	0x377c1d38	1.50271735e-05
43	0x36faa693	7.4699724e-06
44	0xb705a08d	-7.964799e-06
45	0xb5dabbb9	-1.62969e-06
46	0x3848f7b9	4.7914426e-05
47	0x37947c6c	1.7700913e-05
48	0xb9054a9b	-0.00012711661
49	0xb7932a11	-1.7543354e-05
50	0xb823e837	-3.9078495e-05
51	0xb6759d16	-3.659928e-06
52	0xb7a143e1	-1.9224304e-05
53	0xb890b370	-6.899878e-05
54	0x37bd8966	2.2594537e-05
55	0x37f43229	2.9110424e-05
56	0xb73c5fb6	-1.1227958e-05
57	0x38d0d7f6	9.958439e-05
58	0xb6ff6b3b	-7.6120755e-06
59	0xb6b81c7d	-5.486944e-06
60	0xb8d9b812	-0.00010381652
61	0x389e4112	7.5461474e-05
62	0xb8644090	-5.4419565e-05
63	0x38c5e82f	9.4369396e-05

conv_layers.6.weight f4 [64]
0	0x3f74c321	0.95610243
1	0x3f6f6a38	0.9352145
2	0x3f8dec13	1.1087669
3	0x3f83820b	1.0274061
4	0x3f87c551	1.0607091
5	0x3f4dc73f	0.8038215
6	0x3f781bb2	0.9691726
7	0x3f4bc2ac	0.7959392
8	0x3f4a4625	0.7901328
9	0x3f868df9	1.0512077
10	0x3f8d8f6b	1.1059393
11	0x3f94299f	1.1575202
12	0x3f55523f	0.8332862
13	0x3f5845eb	0.84481686
14	0x3f84f206	1.038636
15	0x3f59fda9	0.8515268
16	0x3f75ec79	0.96063954
17	0x3f85cf54	1.0453897
18	0x3f76a72f	0.9634885
19	0x3f8699a9	1.0515643
20	0x3f6c734c	0.9236343
21	0x3f61642e	0.8804349
22	0x3f668c56	0.90057886
23	0x3f810f82	1.0082858
24	0x3f8f8a51	1.1214086
25	0x3f8a6803	1.0812992
26	0x3f873077	1.0561665
27	0x3f6b8700	0.9200287
28	0x3f7c9894	0.98670316
29	0x3f6901c4	0.9101832
30	0x3f8385bf	1.0275191
31	0x3f68a2b5	0.9087327
32	0x3f61f0ba	0.88257945
33	0x3f58e079	0.8471752
34	0x3f91d552	1.1393225
35	0x3f7f8681	0.9981461
36	0x3f74779c	0.9549501
37	0x3f8b9322	1.0904276
38	0x3f8ad5e5	1.0846525
39	0x3f580d35	0.8439515
40	0x3f6155bd	0.8802145
41	0x3f5ba860	0.85803795
42	0x3f8ec9ed	1.1155373
43	0x3f6aa30f	0.9165506
44	0x3f4cef33	0.8005249
45	0x3f706761	0.93907744
46	0x3f958168	1.1680117
47	0x3f7a2a71	0.9772101
48	0x3f803fdb	1.0019487
49	0x3f71d2d1	0.94462305
50	0x3f738804	0.9512942
51	0x3f5d8608	0.8653264
52	0x3f82be14	1.0214257
53	0x3f898c2d	1.0745903
54	0x3f792495	0.97321445
55	0x3f8071cd	1.0034729
56	0x3f6811c8	0.9065213
57	0x3f88e697	1.069537
58	0x3f7c2644	0.9849589
59	0x3f79127a	0.9729382
60	0x3f8f25bc	1.1183391
61	0x3f92c97a	1.1467736
62	0x3f7289bd	0.9474142
63	0x3f8d061a	1.1017487

conv_layers.6.bias f4 [64]
0	0xbe8eb169	-0.27869728
1	0xbe2f8ec8	-0.1714431
2	0xbe4a56cb	-0.19759671
3	0xbd941b4c	-0.07231769
4	0xbde55dcf	-0.11199533
5	0xbe38d6e9	-0.18050732
6	0xbdcffd53	-0.1015574
7	0xbe463aa8	-0.19358313
8	0xbe1d2380	-0.15345573
9	0xbd15ffce	-0.036620907
10	0x3d40dad6	0.0470837
11	0x3d11df84	0.03561355
12	0xbe312f8a	-0.17303291
13	0xbda10cba	-0.078637555
14	0xbde27ca0	-0.110589266
15	0xbdf692ce	-0.120397195
16	0xbd9abad7	-0.07555168
17	0xbe1cc83e	-0.15310761
18	0xbe0ca5fc	-0.13735193
19	0xbcd67265	-0.026177594
20	0xbdf52db9	-0.119716115
21	0xbe5651ac	-0.20929593
22	0xbd8217ba	-0.06352182
23	0xbdf9f20c	-0.1220437
24	0xbe0f1e6d	-0.1397645
25	0xbd17fc7a	-0.037106015
26	0xbe2c9d8e	-0.16856977
27	0xbe1da8ee	-0.15396473
28	0xbe0db9b8	-0.13840377
29	0xbd6a9a7b	-0.05727623
30	0xbdf3f113	-0.11911216
31	0xbea19e2a	-0.31565982
32	0xbd9e9c70	-0.07744682
33	0xbe52f4f3	-0.20601253
34	0xbdb4083a	-0.087906316
35	0xbe888076	-0.26660508
36	0xbe4cda04	-0.20005041
37	0xbe15f99d	-0.14646001
38	0xbcffd4ac	-0.03122934
39	0xbe500205	-0.2031327
40	0xbdd457dc	-0.1036832
41	0xbe896fad	-0.26843014
42	0xbe84c4cc	-0.25931394
43	0xbe3346a7	-0.1750742
44	0xbe28a07d	-0.16467471
45	0xbe027233	-0.12738876
46	0xbdab83eb	-0.08374771
47	0xbdb0c77d	-0.08631799
48	0x3e1a7030	0.15081859
49	0xbde9ba84	-0.11412528
50	0xbe0858f6	-0.13315186
51	0xbe092f85	-0.13397034
52	0xbe6f046f	-0.23341535
53	0xbbb2d55f	-0.0054575647
54	0xbdec9684	-0.11552146
55	0xbe0617c0	-0.13094997
56	0xbe0f3125	-0.13983591
57	0xbdc7eb5b	-0.09761687
58	0xbe935c97	-0.28781578
59	0xbcdf3509	-0.027246969
60	0x3d5eec26	0.054424427
61	0xbe02361e	-0.12715957
62	0xbe007d96	-0.12547907
63	0x3c1c19e3	0.009527656

conv_layers.6.running_mean f4 [64]
0	0xbf584ae6	-0.84489286
1	0x3fc81613	1.5631737
2	0xbf836483	-1.0265049
3	0xc0064b2f	-2.0983388
4	0xbfa57fd7	-1.2929639
5	0xbfe3f532	-1.7809203
6	0xbf53407f	-0.8252029
7	0xbfd2886d	-1.6447884
8	0xbfd20913	-1.6409019
9	0xbeef925a	-0.46791345
10	0xbf73ee80	-0.952858
11	0xbf8d6ac0	-1.1048203
12	0x4046e34f	3.1076238
13	0xbfd110e8	-1.6333284
14	0xbfd2c4a6	-1.6466262
15	0x3fbbfca4	1.4686475
16	0xc03182ab	-2.7736003
17	0xbf6025e1	-0.875578
18	0x3ce6d185	0.028176079
19	0xbf33ef98	-0.70287466
20	0xbfb9ab2e	-1.4505365
21	0xbd30586d	-0.04305308
22	0xbf4d8648	-0.8028302
23	0xbffae061	-1.9599725
24	0xbfe0cfbc	-1.7563396
25	0xbf4d808d	-0.8027428
26	0xbfbf2da3	-1.4935802
27	0x3f580280	0.84378815
28	0xbf118344	-0.5684092
29	0xbf770b23	-0.9650137
30	0x3fc7b891	1.56032
31	0xbeb3bb73	-0.3510395
32	0xbffb9738	-1.9655523
33	0xbe3cf28e	-0.18451902
34	0xbfaa35b2	-1.3297637
35	0xbec1d2ae	-0.37856048
36	0xc08d1187	-4.4083896
37	0xbfd767ba	-1.682853
38	0xbf401621	-0.75033766
39	0xbec5b3b5	-0.38613668
40	0x3f252d79	0.6452251
41	0xbf5a5904	-0.8529208
42	0xbf395eaa	-0.7241007
43	0x3f93d1d4	1.154841
44	0xbfd341cf	-1.6504458
45	0xc05acbff	-3.418701
46	0xbf52561c	-0.8216264
47	0x40028e71	2.039944
48	0xbffa9ae9	-1.9578525
49	0xc03445fb	-2.8167713
50	0xbd3eb538	-0.046559542
51	0x3fe9509d	1.8227726
52	0x3f889d2f	1.0672969
53	0xbf8e5200	-1.1118774
54	0x3fe3e0c0	1.7802963
55	0xc07fa081	-3.9941714
56	0xc0125b7c	-2.2868338
57	0xbf3091b3	-0.6897232
58	0xbdedf408	-0.11618811
59	0xbffb2fef	-1.9624003
60	0xbf855a03	-1.0418094
61	0xbf823a98	-1.0174131
62	0xc093a0c3	-4.613374
63	0xbfd7ea3a	-1.6868355

conv_layers.6.running_var f4 [64]
0	0x401f1fd1	2.486317
1	0x4089d4ed	4.307242
2	0x403e6921	2.9751666
3	0x40a0f1fb	5.0295386
4	0x406c01b6	3.6876044
5	0x418dfbfa	17.748035
6	0x4002dd55	2.044759
7	0x41074068	8.453224
8	0x410dd49a	8.864405
9	0x3f7d17e5	0.98864585
10	0x3fed32fe	1.8531187
11	0x3ff17fcf	1.8867129
12	0x41591b7b	13.569209
13	0x40c9ddf2	6.308343
14	0x401d81c3	2.461045
15	0x402d7af4	2.7106295
16	0x412a253f	10.634093
17	0x3fc23c7f	1.5174712
18	0x3fb292bb	1.3951029
19	0x3fa36aff	1.2767028
20	0x40017111	2.022526
21	0x4012ba40	2.2926178
22	0x4004b909	2.0737936
23	0x4030ecf5	2.7644627
24	0x40903831	4.5068593
25	0x40152f46	2.3310103
26	0x40157817	2.3354547
27	0x4032a103	2.7910774
28	0x3f2ad111	0.6672526
29	0x3ff4312d	1.9077507
30	0x406c1f05	3.6893933
31	0x3ffc4fb1	1.971182
32	0x4194a2ce	18.579494
33	0x3fd31e3e	1.6493604
34	0x4001128f	2.0167577
35	0x4012f6a2	2.2963033
36	0x4158c4c0	13.548035
37	0x400dca7b	2.2154834
38	0x3f98edaf	1.1947535
39	0x3fbccc1a	1.4749787
40	0x40072bff	2.1120603
41	0x40efc86e	7.4932165
42	0x40367900	2.8511353
43	0x406b5667	3.6771486
44	0x418c943d	17.572382
45	0x4119649b	9.587062
46	0x4022cb20	2.5436478
47	0x40b8ff98	5.7812004
48	0x408f7156	4.482585
49	0x40d563c4	6.6684284
50	0x3fb5f925	1.4216658
51	0x41228373	10.157092
52	0x407f6afa	3.9909043
53	0x40450a48	3.0787525
54	0x40ac9ce1	5.3941503
55	0x41230b9a	10.190332
56	0x40b908d1	5.782326
57	0x400ab44d	2.1672547
58	0x405757c9	3.364733
59	0x408925a3	4.2858443
60	0x402dea13	2.7174118
61	0x3fe8693c	1.8157115
62	0x411ccc4b	9.799876
63	0x4008ad06	2.1355605

conv_layers.10.weight f4 [128, 64, 3, 3]
0	0xbd47a7a4	-0.04874386
1	0xbce76ab2	-0.028249118
2	0xbdc50bdc	-0.096214026
3	0xbd819cc8	-0.06328732
4	0xbd8cc4bb	-0.06873461
5	0xbd2f4c41	-0.04279733
6	0xbc1074ee	-0.008816941
7	0x3bdf87bf	0.006821602
8	0xbd052d9c	-0.0325142
9	0xbd821ebe	-0.0635352
10	0xbd03bc92	-0.032162257
11	0xbd674720	-0.056464314
12	0x3ba43f75	0.0050124475
13	0xbc39a6e4	-0.011331294
14	0xbd78c294	-0.06073244
15	0xbd909262	-0.0705917
16	0xbd83c113	-0.0643331
17	0xbd9c3c43	-0.076286815
18	0xbb5ad5d5	-0.0033391614
19	0xbcd4e735	-0.025989154
20	0xbd70ab5e	-0.05875718
21	0xbb47d605	-0.0030492556
22	0xbb35b12e	-0.0027724016
23	0xbd29cba2	-0.041453965
24	0xbda33e74	-0.07970896
25	0xbdb41703	-0.08793452
26	0xbd8fa3b7	-0.07013648
27	0x3da99cba	0.08281846
28	0x3c33a797	0.0109652495
29	0xbbafd595	-0.005366037
30	0x3d2daf6c	0.042403623
31	0x3cec7abd	0.02886712
32	0x3d11531b	0.035479646
33	0x3d1b0daf	0.037854847
34	0x3d3a633d	0.045504797
35	0x3bad07bc	0.005280463
36	0xbca33760	-0.019923866
37	0x3c4df143	0.012569728
38	0xbbfd751c	-0.007734908
39	0xbc929447	-0.01789297
40	0x3cc431ae	0.02394947
41	0xbb72873c	-0.0037006876
42	0xbd634c51	-0.055492703
43	0x3c92b3fe	0.017908093
44	0x3b468ac5	0.0030295115
45	0x3d0e3e81	0.034727577
46	0xbcc8b431	-0.024499984
47	0x3d1b3733	0.03789444
48	0x3cb797c8	0.022411242
49	0x3c3de096	0.01158919
50	0x3c529d37	0.012854866
51	0x3da2680a	0.0793
52	0x3d772dc4	0.06034638
53	0x3db72f49	0.08944566
54	0x3c761c1b	0.015021349
55	0xbd456097	-0.04818782
56	0x3d49f41b	0.049305063
57	0xbd5d3122	-0.054001935
58	0xbd5d43ea	-0.054019846
59	0xbd86db93	-0.06584849
60	0x3b1e09e2	0.0024114777
61	0xbce431d2	-0.027855787
62	0xbc8bc593	-0.017061984
63	0x3c8eb713	0.017421281
64	0x3ceea535	0.029131511
65	0x3d317b8a	0.043330707
66	0xbb5a5f0a	-0.0033320808
67	0x3c5b94c6	0.01340217
68	0x3cdcf009	0.026969926
69	0x3d650cc2	0.05592037
70	0x3c9952d0	0.018716246
71	0x3d885f8f	0.06658851
72	0xbaf4b46d	-0.0018669494
73	0xbc6b3911	-0.014356867
74	0xbd0a316b	-0.033738535
75	0x3c50ee75	0.012752165
76	0xbcccc7fa	-0.0249977
77	0xbd320012	-0.0434571
78	0x3d13bc3d	0.03606819
79	0x3d08c13a	0.0333874
80	0x3d48d2f6	0.049029313
81	0x3d16fd59	0.036862705
82	0x3b9a42cf	0.0047076712
83	0x3d2d2514	0.04227169
84	0x3cbe63c7	0.023240937
85	0xbd735f5b	-0.05941711
86	0xbd7ba15f	-0.061433192
87	0xbcc24816	-0.023716014
88	0xbc8efd45	-0.017454753
89	0xbd47b902	-0.04876042
90	0x3cafda4f	0.021466402
91	0x3d9b825b	0.07593223
92	0xbbcb21e5	-0.006199109
93	0xbd883dbb	-0.06652399
94	0xbdbdecef	-0.09273707
95	0xbdc5c032	-0.09655799
96	0xbc54f4b2	-0.012997793
97	0xbc61b71c	-0.013776567
98	0xbaa57e5a	-0.0012626157
99	0x3acdb5d1	0.0015694444
100	0x3d70c389	0.058780227
101	0x3d004487	0.031315353
102	0xbd7b79a0	-0.061395288
103	0xbd3fb715	-0.04680546
104	0xbdc39dba	-0.09551568
105	0x3d21ee21	0.039533738
106	0x3a3c63f0	0.00071865227
107	0x3c55918a	0.0130351875
108	0xbc975f3b	-0.018478027
109	0xbcea96b4	-0.028636314
110	0x3be2f224	0.006925838
111	0xbbdd5261	-0.006754205
112	0xbc8dc318	-0.017304942
113	0xbc9bfaa2	-0.01904041
114	0x3cdc52d9	0.026894974
115	0x3c6617f8	0.0140438005
116	0x3c7eff98	0.015563868
117	0x3d1dcd29	0.038525734
118	0x3d399dff	0.045316692
119	0xbbfdc793	-0.0077447384
120	0xbba9dbc1	-0.0051836674
121	0x3d33422b	0.043764275
122	0xbb1ee89d	-0.0024247535
123	0xbc29f411	-0.010373131
124	0xbcbf4722	-0.023349348
125	0x3cd2585d	0.0256769
126	0x3c8a9b65	0.016919801
127	0x3d2954c8	0.04134062
128	0x3c30087f	0.010744213
129	0xbc8fa5ed	-0.017535174
130	0x3d1a8078	0.037720174
131	0x3cb45874	0.022014834
132	0x3c85a2ce	0.016312983
133	0x3ca39243	0.019967204
134	0x3d157860	0.03649175
135	0xbdc18ddc	-0.09450886
136	0xbd97e3fe	-0.07416533
137	0xbda85ea1	-0.08221174
138	0xbdbdc197	-0.0926544
139	0xbd61882f	-0.055061515
140	0xbdb4230d	-0.08795748
141	0xbdaf4ebf	-0.085599415
142	0xbdf861bb	-0.121280156
143	0xbdd12de3	-0.1021383
144	0x39dd00a7	0.0004215289
145	0x3c01af56	0.0079153385
146	0x3c43999f	0.011938482
147	0xbcc3cb1d	-0.023900563
148	0x3b236f49	0.0024938157
149	0x3d5444c5	0.051823396
150	0x3d5ebdd4	0.054380253
151	0x3d6bc1ca	0.05755786
152	0x3cb2a297	0.021806045
153	0xbc98a9b1	-0.018635603
154	0xbc91ca52	-0.01779667
155	0xbd046379	-0.032321427
156	0xbc902cd1	-0.017599495
157	0xbc394a98	-0.011309288
158	0x3c7b7413	0.0153474985
159	0x3cfcc3eb	0.03085514
160	0xbc209de0	-0.009803265
161	0x3bcda6a4	0.0062759686
162	0xbdf69f3d	-0.12042091
163	0xbda5734c	-0.08078632
164	0xbd8b017d	-0.06787393
165	0xbc747589	-0.014920601
166	0xbd7be86e	-0.06150096
167	0xbc2b8cb6	-0.01047056
168	0xbdb6344a	-0.08896692
169	0xbd836fdb	-0.06417819
170	0xbd07ec8e	-0.03318458
171	0x3d2b5de8	0.041837603
172	0x3cb0567d	0.021525616
173	0xbbc548da	-0.0060206475
174	0x3c3698ff	0.011144876
175	0xbc85277a	-0.016254175
176	0x3c932d36	0.017965894
177	0x3d9e3805	0.07725529
178	0x3db1b91a	0.086778834
179	0x3dc15574	0.09440127
180	0x3d999131	0.07498396
181	0x3d373834	0.044731334
182	0x3da24950	0.079241395
183	0x3c2cfff8	0.010559075
184	0xbd2b54b6	-0.041828834
185	0x3b4986b1	0.0030750448
186	0x3dbda3c6	0.09259753
187	0x3db12da0	0.086512804
188	0x3ded839e	0.115973696
189	0xbc50923e	-0.012730179
190	0xbc4ca711	-0.012491004
191	0xbd5015e2	-0.05080212
192	0xbc3892be	-0.011265455
193	0xbd3a6d4b	-0.045514386
194	0xbc80aeb3	-0.015708303
195	0xbd19d24b	-0.037554067
196	0xbd270adf	-0.04078185
197	0xbd4708df	-0.048592445
198	0x3ce88365	0.028382966
199	0xbc607cf4	-0.013701666
200	0x3d4aea3b	0.049539786
201	0xbd057996	-0.032586657
202	0xbd940c66	-0.07228927
203	0x3b87e1ce	0.004146791
204	0x3d189033	0.037246894
205	0x3d80e594	0.062937886
206	0x3d37fa30	0.04491633
207	0x3d633ae0	0.05547607
208	0x3d7c660a	0.06162075
209	0x3d13cc4e	0.036083512
210	0x3e01273b	0.12612621
211	0x3d85871c	0.06519911
212	0x3dc0d355	0.094153084
213	0x3e045a1e	0.12925002
214	0x3d1f8e92	0.038954325
215	0x3d4bcd50	0.049756348
216	0x3cfdae59	0.030966925
217	0x3d18af73	0.037276696
218	0x3d230137	0.03979608
219	0x3ccaa9d3	0.024739182
220	0x3cc98de1	0.024603786
221	0x3d7123ab	0.058871906
222	0xbc2ec17a	-0.010666246
223	0xbd1fd5d7	-0.039022293
224	0xbaf5ae1b	-0.0018743904
225	0xbc47972e	-0.01218204
226	0xbd2ff9c5	-0.04296281
227	0xbcc00e85	-0.023444423
228	0xbd97bf8c	-0.074095815
229	0xbde15f59	-0.11004514
230	0xbd7e206e	-0.062042646
231	0x3d5fd7c2	0.054649122
232	0x3cdfb46a	0.027307708
233	0xbac08636	-0.0014688435
234	0x3dde0b53	0.10842004
235	0x3da21b30	0.07915342
236	0xbc1fd1bf	-0.009754597
237	0x3b69f6d3	0.0035700097
238	0xbc77bd51	-0.01512082
239	0xbd7eca46	-0.06220462
240	0x3aa2cc69	0.0012420538
241	0x3d4941e0	0.04913509
242	0x3d681687	0.05666211
243	0xbc6277f2	-0.0138225425
244	0xbd946326	-0.072454736
245	0xbcae64f1	-0.021288367
246	0x3d0c77df	0.034294005
247	0x3d0c5f9e	0.034270875
248	0x3d7e50a1	0.062088612
249	0xba51e587	-0.00080069195
250	0x3c3863bf	0.01125425
251	0x3d641d54	0.055692032
252	0xbd2a37ad	-0.041557003
253	0x3c6f70d9	0.014614307
254	0xbccc5a20	-0.024945319
255	0xbcbf4540	-0.02334845

conv_layers.10.bias f4 [128]
0	0x366abdf4	3.4979284e-06
1	0xb81eb5db	-3.78395e-05
2	0x3829571b	4.0373863e-05
3	0xb71873eb	-9.086895e-06
4	0xb58e5dfe	-1.060718e-06
5	0x359f24b9	1.1857111e-06
6	0x36309552	2.631296e-06
7	0x38a1aafc	7.7089266e-05
8	0x389e82f9	7.558423e-05
9	0xb8046fb5	-3.1575288e-05
10	0x38324824	4.2505693e-05
11	0xb775c842	-1.4649764e-05
12	0xb6cffa82	-6.1982437e-06
13	0xb8130e03	-3.506058e-05
14	0x390f3c55	0.00013660018
15	0xb8731a85	-5.7960413e-05
16	0x33482d35	4.6607244e-08
17	0xb71b704e	-9.264868e-06
18	0xb736506c	-1.086677e-05
19	0xb72c15b4	-1.0257052e-05
20	0x37a41166	1.9558425e-05
21	0x356fd322	8.9341677e-07
22	0x3619b629	2.2904808e-06
23	0x36977725	4.514021e-06
24	0x3697372c	4.5065735e-06
25	0xb75fc969	-1.333873e-05
26	0xb840aa97	-4.593524e-05
27	0x3700ac31	7.669486e-06
28	0xb75f3177	-1.3303353e-05
29	0x35081e04	5.0707627e-07
30	0x35d4b9da	1.5849321e-06
31	0x38a1f3e5	7.722507e-05
32	0xb668d28f	-3.4693255e-06
33	0xb820cb78	-3.8336468e-05
34	0x37d6ce47	2.5606843e-05
35	0xb5e595b3	-1.7105398e-06
36	0xb74122c2	-1.1511789e-05
37	0xb8807a6d	-6.126319e-05
38	0x37bf728e	2.2822318e-05
39	0xb7d51e04	-2.5405556e-05
40	0xb84a6d61	-4.826242e-05
41	0x38d461b0	0.000101271435
42	0x360f1a16	2.1323845e-06
43	0xb700f459	-7.686286e-06
44	0x36c7501d	5.9399886e-06
45	0x369b5d95	4.6302544e-06
46	0x39be3f80	0.00036286935
47	0x371aecca	9.234247e-06
48	0xb7456e19	-1.1767749e-05
49	0xb7e65b87	-2.7460757e-05
50	0xb73f2084	-1.1392058e-05
51	0xb82dc0b1	-4.1425872e-05
52	0xb5a73e5d	-1.246062e-06
53	0x35af69a8	1.3069266e-06
54	0xb59c063d	-1.1624721e-06
55	0xb82a8297	-4.065278e-05
56	0xb8d7fe5e	-0.000102993785
57	0xb6fcc56e	-7.533169e-06
58	0xb6ba4baf	-5.5520427e-06
59	0x365e26e8	3.3103224e-06
60	0x387bf25b	6.0068774e-05
61	0xb791e08e	-1.7389913e-05
62	0x38060b97	3.1958883e-05
63	0x38d8c426	0.00010336218
64	0x3782d1cd	1.5594904e-05
65	0xb8b6b79b	-8.7126355e-05
66	0x3717193a	9.006175e-06
67	0xb836b973	-4.3564894e-05
68	0x38e8cc16	0.00011100636
69	0x37d175ba	2.4969562e-05
70	0x37d907c8	2.587204e-05
71	0x37e3e843	2.7168664e-05
72	0xb738eaba	-1.1021906e-05
73	0x37295098	1.009195e-05
74	0xb6f72b5c	-7.3662213e-06
75	0xb5cd4c0b	-1.5295822e-06
76	0x37d2503e	2.5071316e-05
77	0x38663972	5.4889773e-05
78	0xb79ef578	-1.8949373e-05
79	0x35a6fd96	1.2441767e-06
80	0x3885526d	6.357287e-05
81	0xb87bab04	-6.0002334e-05
82	0x35340ffb	6.707848e-07
83	0xb8e7abcc	-0.00011046938
84	0xb6e5ad11	-6.8448794e-06
85	0x3795728b	1.7815522e-05
86	0xb8396850	-4.4204586e-05
87	0x34e6ba75	4.2976504e-07
88	0x37f04889	2.8644006e-05
89	0x37ed386b	2.8278873e-05
90	0x3706f1de	8.0433365e-06
91	0x3757332f	1.2826916e-05
92	0x3709bf90	8.210438e-06
93	0xb915188d	-0.00014218893
94	0xb648b822	-2.9909502e-06
95	0x381b006e	3.695528e-05
96	0xb718b965	-9.1030715e-06
97	0x3887ea11	6.4809e-05
98	0x3842fcad	4.6488527e-05
99	0x3828606f	4.0144132e-05
100	0xb8275351	-3.9893497e-05
101	0xb7e214d6	-2.6951002e-05
102	0x3781df5d	1.548201e-05
103	0x36fba430	7.499497e-06
104	0x36ce4255	6.1470005e-06
105	0xb8b6cd95	-8.716729e-05
106	0xb82871d9	-4.016035e-05
107	0x36825083	3.8836747e-06
108	0xb66d3d64	-3.5351486e-06
109	0xb7827039	-1.5549465e-05
110	0xb73dc8e8	-1.1312055e-05
111	0xb717f071	-9.0562835e-06
112	0xb73f7d8a	-1.14137165e-05
113	0xb658a373	-3.2281648e-06
114	0xb8639fe6	-5.4269934e-05
115	0x37490361	1.198132e-05
116	0x370d5826	8.424779e-06
117	0x38759cfe	5.8558762e-05
118	0xb7a2d698	-1.9411833e-05
119	0xb8541fff	-5.0574537e-05
120	0x386df13d	5.6729874e-05
121	0xb70fe154	-8.5759275e-06
122	0x3842ad85	4.6414807e-05
123	0x3735d5fb	1.0838262e-05
124	0x377a1c7e	1.4907795e-05
125	0xb7ce261b	-2.4574858e-05
126	0xb807c0c8	-3.236605e-05
127	0x38c9646e	9.6031334e-05

conv_layers.11.weight f4 [128]
0	0x3f7053cb	0.9387786
1	0x3f6ec20c	0.9326484
2	0x3f767353	0.9626972
3	0x3f7858f9	0.9701076
4	0x3f7f62a3	0.9975988
5	0x3f6a81fa	0.9160458
6	0x3f55cd5d	0.83516484
7	0x3f79c7ea	0.9757067
8	0x3f8e966c	1.1139655
9	0x3f73493e	0.95033634
10	0x3f841377	1.031844
11	0x3f7bbf3f	0.98338693
12	0x3f7740d1	0.96583277
13	0x3f79bf75	0.97557765
14	0x3f885d7e	1.0653532
15	0x3f742ef9	0.95384175
16	0x3f7a7e13	0.97848624
17	0x3f7d9a7b	0.99063843
18	0x3f5811be	0.8440207
19	0x3f67173a	0.90269816
20	0x3f641fba	0.8911091
21	0x3f55b42d	0.8347805
22	0x3f7c6552	0.985921
23	0x3f696215	0.91165286
24	0x3f80fcc7	1.0077142
25	0x3f6a277b	0.9146649
26	0x3f7aa91e	0.979143
27	0x3f7517a8	0.9573922
28	0x3f766ea0	0.9626255
29	0x3f6a6fc6	0.915768
30	0x3f8310d1	1.0239507
31	0x3f8581f9	1.043029
32	0x3f745eb5	0.9545701
33	0x3f86a199	1.0518066
34	0x3f7a5f18	0.9780135
35	0x3f5357ea	0.8255602
36	0x3f7ea16b	0.99465054
37	0x3f754cd1	0.9582034
38	0x3f6e8f7e	0.931877
39	0x3f77052b	0.9649226
40	0x3f884616	1.0646389
41	0x3f807c41	1.0037919
42	0x3f661f43	0.8989145
43	0x3f7d659e	0.9898318
44	0x3f703e19	0.93844754
45	0x3f7dbbdb	0.9911477
46	0x3f8d1ce3	1.102444
47	0x3f66878b	0.9005057
48	0x3f6c2b2a	0.92253363
49	0x3f6fe713	0.93711966
50	0x3f74155c	0.9534509
51	0x3f7261c4	0.9468043
52	0x3f70b8d0	0.94032
53	0x3f64b69a	0.8934113
54	0x3f80ceed	1.0063149
55	0x3f668766	0.9005035
56	0x3f8147e6	1.0100067
57	0x3f6d2a71	0.92642885
58	0x3f6dd4a1	0.9290257
59	0x3f54430c	0.82914805
60	0x3f8b0d3d	1.0863415
61	0x3f786ccc	0.9704101
62	0x3f8d6893	1.1047539
63	0x3f8bb7bd	1.0915447
64	0x3f81d3c1	1.0142747
65	0x3f89e513	1.0773033
66	0x3f86897f	1.051071
67	0x3f7f04e9	0.9961687
68	0x3f84af53	1.0366005
69	0x3f88753c	1.0660777
70	0x3f7e7561	0.99397856
71	0x3f7b84d3	0.9824955
72	0x3f721885	0.94568664
73	0x3f806c49	1.0033046
74	0x3f6c27fc	0.9224851
75	0x3f60784d	0.87683564
76	0x3f5b704b	0.8571822
77	0x3f80c9d1	1.006159
78	0x3f6a1c61	0.9144955
79	0x3f4fcb84	0.81169915
80	0x3f8b0016	1.0859401
81	0x3f835380	1.0259857
82	0x3f6b5e3d	0.9194067
83	0x3f85c3ea	1.0450413
84	0x3f7f82ea	0.99809134
85	0x3f79e690	0.97617435
86	0x3f7b58db	0.9818246
87	0x3f56da38	0.83926725
88	0x3f8416f1	1.0319501
89	0x3f7e5ba9	0.9935861
90	0x3f5b1d54	0.85591626
91	0x3f8806a5	1.0627028
92	0x3f51c6f0	0.8194418
93	0x3f818d6f	1.0121287
94	0x3f7c0226	0.9844078
95	0x3f7dff30	0.9921751
96	0x3f83a1ba	1.028373
97	0x3f82615d	1.0185963
98	0x3f72e0c6	0.9487423
99	0x3f70adfd	0.94015485
100	0x3f85f7ce	1.0466249
101	0x3f641224	0.8909018
102	0x3f620e6d	0.8830326
103	0x3f5efe22	0.87106526
104	0x3f6022e6	0.8755325
105	0x3f849822	1.0358927
106	0x3f7b7246	0.9822124
107	0x3f842a7e	1.0325468
108	0x3f8b62a0	1.0889473
109	0x3f61ed44	0.88252664
110	0x3f82cdf3	1.0219101
111	0x3f669374	0.90068746
112	0x3f674e05	0.90353423
113	0x3f6ab5f8	0.9168391
114	0x3f822c0e	1.0169694
115	0x3f6fe007	0.93701214
116	0x3f85cf11	1.0453817
117	0x3f80917f	1.0044402
118	0x3f5b9093	0.8576748
119	0x3f863ba3	1.048695
120	0x3f76ca0f	0.96402067
121	0x3f6b03e6	0.91802824
122	0x3f80d097	1.0063657
123	0x3f83acf3	1.0287155
124	0x3f75282e	0.95764434
125	0x3f69c5f0	0.91317654
126	0x3f797151	0.9743853
127	0x3f89c12b	1.0762075

conv_layers.11.bias f4 [128]
0	0xbe1b758f	-0.15181564
1	0xbce96ab6	-0.028493267
2	0xbc9a5e9a	-0.018843938
3	0xbd34ebc3	-0.044170152
4	0xbd1f7a13	-0.03893478
5	0xbd950b7c	-0.07277581
6	0xbd5ff24b	-0.054674428
7	0xbd8670d2	-0.065644875
8	0xbe8073f2	-0.2508846
9	0xbe06feee	-0.13183185
10	0xbdfa2ed0	-0.1221596
11	0xbdac45c1	-0.08411742
12	0xbe275a96	-0.1634315
13	0xbe06754d	-0.13130684
14	0xbdca2caf	-0.09871804
15	0xbcceffe3	-0.0252685
16	0xbc8d1eec	-0.017226659
17	0xbe14eb9e	-0.14543006
18	0xbd41dab7	-0.047327723
19	0xbda4eed1	-0.08053363
20	0xbd6a6b62	-0.057231314
21	0xbdff8810	-0.12477124
22	0xbd2f2701	-0.042761806
23	0xbdd7100e	-0.10501109
24	0xbd2ea4aa	-0.042637505
25	0xbdad6d2b	-0.08468088
26	0xbdd5f669	-0.1044739
27	0xbe2dcc1c	-0.16972393
28	0xbe35b842	-0.1774607
29	0xbd8af364	-0.06784704
30	0xbe1403fe	-0.14454648
31	0xbe1989a4	-0.14993912
32	0xbd232af5	-0.03983589
33	0x3cd7d647	0.026347293
34	0x3c71a17f	0.014747976
35	0xbd8e09ca	-0.06935461
36	0xbdd2a007	-0.10284429
37	0xbd45f743	-0.04833151
38	0xbca43869	-0.02004643
39	0xbdff9a95	-0.12480656
40	0x3c635b96	0.013876816
41	0xbe1b3cdd	-0.15159936
42	0xbdb537fe	-0.0884857
43	0xbc6df51b	-0.01452377
44	0xbd428188	-0.047486812
45	0xbd5e32bb	-0.0542476
46	0xbe1eb19c	-0.1549744
47	0xbdb1a53c	-0.08674094
48	0x3b351a3a	0.002763404
49	0xbc747b1f	-0.0149219325
50	0x3c4eadb4	0.012614656
51	0xbd7eb3d6	-0.062183224
52	0xbda8fb5e	-0.082510695
53	0xbe102b10	-0.14078927
54	0xbdefedda	-0.117152885
55	0xbd52253a	-0.051305033
56	0xbdc7568c	-0.097333044
57	0xbdd1b516	-0.102396175
58	0xbd893cd9	-0.06701059
59	0xbcf2f988	-0.029660001
60	0xbe384c45	-0.17997845
61	0xbe3abaff	-0.18235396
62	0xbe1f4bc2	-0.15556243
63	0xbd43b1aa	-0.047776856
64	0xbd77b1f4	-0.060472444
65	0xbe4ed1d5	-0.20197232
66	0xbdb987c5	-0.09059099
67	0xbd0be9f3	-0.03415866
68	0xbe38c3f3	-0.18043499
69	0xbe633049	-0.22186388
70	0xbcec4888	-0.02884318
71	0x3b7544f3	0.003742513
72	0xbd94ef57	-0.07272213
73	0xbe105a48	-0.1409694
74	0xbdbaead5	-0.09126822
75	0xbd94f134	-0.07272568
76	0xbdf9050c	-0.12159166
77	0xbd28797e	-0.04113149
78	0xbe3ac1fa	-0.18238059
79	0xbd9e3ee0	-0.07726836
80	0xbdf6a291	-0.12042726
81	0xbe210513	-0.15724592
82	0xbe1eac70	-0.15495467
83	0xbd68a036	-0.056793414
84	0xbe107097	-0.1410545
85	0xbdffc9e0	-0.124896765
86	0xbdd23470	-0.10263908
87	0xbda834c7	-0.082131915
88	0xbd873e04	-0.066036254
89	0xbd066128	-0.0328075
90	0xbd254c0e	-0.040355735
91	0xbdb0d27a	-0.08633895
92	0xbcced247	-0.025246752
93	0xbe09fda5	-0.13475664
94	0xbd136d0d	-0.03599267
95	0xbe0642bc	-0.13111395
96	0xbe1fa0d9	-0.15588702
97	0xbbb06b06	-0.005383852
98	0xbe080f73	-0.13287143
99	0xbdcf77e9	-0.10130293
100	0xbddf8fcb	-0.10916098
101	0xbdc877b0	-0.097884536
102	0xbd977875	-0.07396022
103	0xbdb9d258	-0.09073323
104	0xbd9f12cf	-0.07767259
105	0xbe171188	-0.14752781
106	0xbe081494	-0.132891
107	0xbdbcfd73	-0.09228029
108	0xbe0c86e3	-0.1372333
109	0xbdd39eb3	-0.10333004
110	0xbd45119b	-0.048112493
111	0xbdb8d4b7	-0.09024947
112	0xbdc090f0	-0.09402645
113	0xbddf9fbf	-0.10919141
114	0x3b2ead91	0.0026653747
115	0x3cb12c37	0.021627529
116	0xbe100309	-0.14063658
117	0xbda4a7e5	-0.08039836
118	0xbc4f95e4	-0.012670014
119	0x3d7cf503	0.0617571
120	0xbdf12ea0	-0.11776471
121	0xbd38f6d0	-0.045157254
122	0xbdb95020	-0.09048486
123	0xbda96eae	-0.082730636
124	0xbe17cc7e	-0.14824101
125	0xbbf2be71	-0.0074079563
126	0xbe3805e4	-0.17970997
127	0xbe40d2bb	-0.18830387

conv_layers.11.running_mean f4 [128]
0	0xbf80102f	-1.0004939
1	0xc0a443bb	-5.133268
2	0xbf7f50e3	-0.997328
3	0x3ea20b7a	0.3164938
4	0xc0aa42b3	-5.320642
5	0xbedcce6b	-0.43126234
6	0xc0719068	-3.7744389
7	0xbfac0f29	-1.3442127
8	0xbfce83be	-1.6133955
9	0x3f349196	0.70534647
10	0x3f233602	0.63754284
11	0x4059cb4a	3.4030328
12	0x4075614c	3.8340635
13	0xc0141f76	-2.3144202
14	0xc03e2ddb	-2.9715488
15	0xbfbc4e32	-1.4711363
16	0x3e8e1695	0.27751604
17	0xc089be3b	-4.3044715
18	0x3ddee301	0.10883141
19	0xbff482b4	-1.9102387
20	0xbf9346d3	-1.1505989
21	0xbfd468cb	-1.659448
22	0x3d07e873	0.033180665
23	0x3f0c548b	0.548165
24	0xbf90c3a0	-1.13097
25	0xbf250de4	-0.6447432
26	0x3ec318ff	0.38105008
27	0x3fc72a03	1.5559696
28	0x3f2a1586	0.6643909
29	0xbe25a0a7	-0.16174565
30	0xc0778b94	-3.8678942
31	0xbf5851bd	-0.8449972
32	0xbfaab912	-1.3337729
33	0xc0a9dec1	-5.3084416
34	0xc07ea162	-3.9786
35	0xc0271e37	-2.6112192
36	0xc003e97f	-2.0611265
37	0xc084b5db	-4.147199
38	0xbfaca86e	-1.3488901
39	0x402b6cdd	2.6785195
40	0xc06cf1d3	-3.7022598
41	0xbf3db287	-0.74100536
42	0xbfad32c8	-1.3531122
43	0xc0a64836	-5.196315
44	0xbdf49b1e	-0.11943649
45	0x403f4794	2.9887438
46	0xbfef91f5	-1.8716418
47	0xbe9862e6	-0.29762954
48	0x3e74ceab	0.23906963
49	0x3f8c59c0	1.096489
50	0x3e916387	0.28396246
51	0x4000f594	2.014989
52	0xc05b2493	-3.4241073
53	0xbe9e53c4	-0.30923283
54	0x40334498	2.8010616
55	0xbf9eb113	-1.2397789
56	0xbfe76a34	-1.8079286
57	0x3f47133a	0.7776371
58	0xbf2fbdf5	-0.68649226
59	0x3eec4e48	0.46153474
60	0xbebf50be	-0.3736629
61	0x4048225f	3.1270978
62	0xbfb410b2	-1.4067595
63	0xbfbe7c53	-1.4881691
64	0xc0a9ad94	-5.3024387
65	0xbf151070	-0.58228207
66	0x4036e903	2.857972
67	0xbfa8b27f	-1.3179473
68	0xbdb60b5c	-0.088888854
69	0xbf38aaca	-0.72135603
70	0x3cfacbc0	0.030614734
71	0xc0989cca	-4.7691393
72	0xbed3ae20	-0.41343784
73	0x3f9c3240	1.2202835
74	0x3e560112	0.20898846
75	0xc08ddcc7	-4.4332004
76	0xc06d4b00	-3.7077026
77	0xbfaee0c8	-1.3662348
78	0xc0a092ec	-5.017935
79	0xbf899fd4	-1.0751901
80	0xc04648a5	-3.0981839
81	0x3e806b99	0.2508209
82	0xc03a3cc0	-2.909958
83	0xc0a2acd7	-5.0835986
84	0x409265b7	4.5749164
85	0xc015fcbc	-2.3435507
86	0xbf8220fb	-1.0166315
87	0xbffdf569	-1.9840518
88	0xbfeee128	-1.8662462
89	0xb928de74	-0.00016104599
90	0xbfc40719	-1.5314666
91	0xbfa4b19e	-1.2866704
92	0xbedcff8b	-0.43163714
93	0xc00db40f	-2.214115
94	0xbfcaa55c	-1.5831714
95	0x4063096b	3.5474498
96	0xbe0f3b97	-0.13987575
97	0xc0860cf7	-4.1890826
98	0x3faa2c37	1.3294743
99	0xc0007de9	-2.007685
100	0xbfad63e0	-1.3546104
101	0x3ed0dc63	0.40793142
102	0xbed7c4db	-0.42142376
103	0xc007737b	-2.1164234
104	0xbff2598a	-1.8933575
105	0xbf4fa0af	-0.8110456
106	0xbdf33c8a	-0.11876781
107	0xbf45b52c	-0.7722957
108	0xbfdaadb4	-1.708426
109	0xbf369d57	-0.7133383
110	0xc088074e	-4.2508917
111	0xc0014509	-2.0198386
112	0xc021568a	-2.520907
113	0xbffab11f	-1.9585303
114	0xbf9ba9f1	-1.2161237
115	0xc00f4e98	-2.239172
116	0xbfadac67	-1.3568238
117	0xbfedf178	-1.8589315
118	0xbe36991e	-0.17831847
119	0xc06b3301	-3.674988
120	0xbf2a8409	-0.6660772
121	0x3fa531bf	1.2905806
122	0xbf8c66ed	-1.096891
123	0xbf19a0b4	-0.6001084
124	0xc09ad587	-4.8385653
125	0x3f736413	0.95074576
126	0xbf9152b0	-1.1353359
127	0xc017dba1	-2.37278

conv_layers.11.running_var f4 [128]
0	0x412ac079	10.67199
1	0x412768de	10.463102
2	0x40b82036	5.753932
3	0x41577d58	13.4681015
4	0x4152ca3f	13.1743765
5	0x413a6303	11.649173
6	0x40c7939f	6.23677
7	0x40dc0e79	6.8767667
8	0x40918997	4.5480456
9	0x40888445	4.266146
10	0x40ad5b6b	5.4174094
11	0x40da63dd	6.8246903
12	0x40c0e00b	6.027349
13	0x40acb5c8	5.39719
14	0x40ba985b	5.831098
15	0x40e05e06	7.0114775
16	0x4112cbfc	9.174801
17	0x411bdf42	9.742006
18	0x41154f6a	9.331888
19	0x41594471	13.579209
20	0x40f51f2d	7.6600556
21	0x41229962	10.162447
22	0x40c96ad6	6.2942915
23	0x4173f20e	15.246595
24	0x40a96ba6	5.2943907
25	0x40d638e9	6.694447
26	0x40d06e7d	6.5134873
27	0x4092cc4c	4.5874386
28	0x40b1ecdd	5.560164
29	0x40b6ce0f	5.7126536
30	0x40fd05d8	7.9069633
31	0x409cf013	4.904306
32	0x413e1b36	11.881643
33	0x4149a806	12.603521
34	0x4122d47d	10.176877
35	0x417bcef1	15.738023
36	0x411f24a8	9.946449
37	0x40b69b28	5.70644
38	0x41378e96	11.472311
39	0x40a8caff	5.27478
40	0x4111780f	9.091811
41	0x4048d1e5	3.137811
42	0x413e7e2f	11.905807
43	0x41600e5f	14.003509
44	0x40ab441c	5.352064
45	0x40c1bfac	6.0546474
46	0x407fd1bf	3.997177
47	0x4082f1d0	4.092018
48	0x40d5fc96	6.6870832
49	0x409805f5	4.750727
50	0x4139ffba	11.624933
51	0x4108ffcf	8.562453
52	0x40b6c110	5.711067
53	0x411f7978	9.967155
54	0x40b7fd38	5.7496605
55	0x40a1396a	5.0382586
56	0x40b1a082	5.5508432
57	0x412d8477	10.84484
58	0x40811159	4.0333676
59	0x411a8b7e	9.659056
60	0x40bd0a91	5.90754
61	0x40c2af65	6.0839105
62	0x408ab804	4.334963
63	0x40d8b1d2	6.7717066
64	0x40c34ae9	6.1028943
65	0x406b699e	3.6783214
66	0x40eb004e	7.343787
67	0x411f8479	9.969842
68	0x40a14182	5.0392466
69	0x408d0bb6	4.4076796
70	0x40cf58aa	6.4795732
71	0x411e1cef	9.882064
72	0x40dc1a4b	6.8782096
73	0x4121a08e	10.101698
74	0x409133f3	4.5375915
75	0x40ea0285	7.3128076
76	0x40d504eb	6.6568503
77	0x40f8f305	7.7796655
78	0x4113edb9	9.245538
79	0x4129461e	10.579618
80	0x40d0ebce	6.5287848
81	0x407a473e	3.9105983
82	0x4164fb24	14.311314
83	0x4134dee6	11.304419
84	0x40f29376	7.5805006
85	0x40c2664b	6.074987
86	0x40a55263	5.166307
87	0x41237f42	10.218569
88	0x40d40afd	6.6263413
89	0x41246447	10.274482
90	0x417532a2	15.324862
91	0x40e6f23b	7.217069
92	0x413e573c	11.896297
93	0x408dda71	4.432915
94	0x41260793	10.376849
95	0x4095f439	4.6860623
96	0x4093267b	4.5984473
97	0x413449cc	11.268017
98	0x40dda0c3	6.925874
99	0x40bb4c8d	5.8530946
100	0x40caf8f4	6.34289
101	0x40b1ec63	5.560106
102	0x4102dc5e	8.178801
103	0x40c823df	6.254379
104	0x4098f60d	4.7800355
105	0x4085e663	4.1843734
106	0x408acb4e	4.3373175
107	0x40d23abc	6.5696697
108	0x40d6e2f7	6.7152057
109	0x4115c482	9.360476
110	0x4118a839	9.54107
111	0x411fa475	9.977651
112	0x40ef9b0e	7.4876776
113	0x4153f8cf	13.248244
114	0x40f79afa	7.737668
115	0x4110a5df	9.040496
116	0x40840e22	4.126725
117	0x40cee6fe	6.4656973
118	0x40c4c6e7	6.14928
119	0x41130463	9.188571
120	0x40e299b0	7.0812607
121	0x41024036	8.1406765
122	0x415b1aaf	13.694015
123	0x40b8fec2	5.7810984
124	0x412aa73b	10.665828
125	0x41004b65	8.018407
126	0x409d1e81	4.9099736
127	0x40c38e0a	6.1110888
