siren/final_siren_classifier.pth (torch, 419514 bytes, 25 tensors)

conv_layers.0.weight f4 [32, 1, 3, 3]
00000000: 67bb 783e 7ada b63e 1a26 bdbd 38ac 103e
00000010: 64d9 d2bd 9307 ecbc ea7b 6cbe 49fa 453e
00000020: 50cf 9a3e 1074 89be b770 ac3e 1447 0d3e
00000030: 7dff 613d a293 d7bd 44a3 553d 4edb 24be
00000040: 7f04 553e 6baa 233e 1ceb 65be 962d d93b
00000050: 0c98 48be 0717 e5bd 75c2 48be b10e 343e
00000060: 7ed0 3abe 6305 25be 94e8 66bd a964 5cbe
00000070: 3e2e 853b 8677 a6be c77d 993e d65f 90be
00000080: 52e6 8e3e f8dc 8c3d 058b e0bd 6dda 693e
00000090: 2ff4 8b3d ce1c a33e c72c 193d 2c6a febd
000000a0: b6e4 b23d a78b 94bd eca4 d63c a4de 833e
000000b0: b170 803e e102 29be 707a 3d3e b056 553d
000000c0: 33bf 073e b58f 5ebe 8b96 b1be 7c72 2bbe
000000d0: 262b 8abe 3a6e 863e 9452 da3d 9752 153e
000000e0: 4b0d 553e 0de3 92bd ef31 493e 5c92 42be
000000f0: b30a c1bd b16c 97be c6d0 3c3d 520a 03be
00000100: ec04 953d bdf6 cdbd b56e 933e 4aae 37be
00000110: 4937 38be a423 2fbe d1ed ad3e 1be0 253e
00000120: c651 9f3e ec50 91be bc48 bbbe 0aac 8cbe
00000130: e545 83be 7b6f bf3d b5bb df3d b58c 743e
00000140: 845b 62be a394 81be e856 353e 758e bdbd
00000150: b038 2e3e 637b 8ebd 7812 6b3e 8f29 8bbe
00000160: cfec 22be 29a1 113e 1530 ad3d c25d ddbd
00000170: 0cb5 103e 5576 7d3e c674 7abe a75f 3dbe
00000180: b28b aa3e d225 edbd 6b2b 14be 1ae7 b0be
00000190: 08a3 44be b305 1f3e badc 07be dd2a 5fbe
000001a0: 642d 083e a44b 45be 8819 3dbe 8899 e33b
000001b0: 033c 8bbe c39a 51be e2b3 b43e 6f28 b33d
000001c0: 4f75 013e e521 9abe efe8 53be 97f2 d3bd
000001d0: 074e 693d 55bb a3be bb7c 20be 75d8 9ebd
000001e0: 7b1d 62bd ea6e 2dbe b405 d93d 109c 83be
000001f0: dccf 7fbe 9281 80bd 8016 1dbe 0a87 87be
00000200: fa5d 9c3e d0d1 d0bd a22c 863e 4538 fa3d
00000210: d70b 95be 652a 693e d8c7 82bd fb5d 88be
00000220: c3b4 b0be c5cd d7be 7281 953d 072b bdbd
00000230: 9c7e bc3d 4742 25be 42e8 a73e a5e1 e4bd
00000240: 0826 713c ee4a 053e 42c5 383e 8e1e 7a3e
00000250: 3468 8c3e fe37 9fbe 04c4 733d c61a f2bd
00000260: 2284 dabc 6258 82be a8d8 993e 9eb7 7fbe
00000270: 469f a13d 909d 873d 11a2 f23c 5b26 35be
00000280: 2067 c93e 6ea7 3b3e 1bda 383d 5a04 80be
00000290: 34f9 573e 35c6 a3bd a926 2abe 15f7 9d3e
000002a0: 3eaf 8b3d 37ce 31be 7904 0bbe 58f1 ea3c
000002b0: ce6a 2a3e 7b06 e3bd 2dca 24be 2121 f4bd
000002c0: e2fa a1be 47e0 1c3e 8119 763e bae8 a1be
000002d0: 908b dc3d 4057 a83e 34ed 503e e619 23be
000002e0: 36f1 ed3d 1083 233e 9389 53bb 6995 c3bd
000002f0: c714 7ebd 6e1c 833d 61eb 3cbd 362c e8bd
00000300: 7f41 933e 168e 8f3e bfbe d5bc 2422 c8bd
00000310: ceef f7bc 3f8f b9bc 64fe dd3d 34e9 bc3d
00000320: 1a34 9dbe 0fc7 0fbe 3b40 713e a638 b23d
00000330: 3d1a 13bd 344b 8abe 8c79 90be 765b 99be
00000340: ead4 0ebe e442 e53d 3b22 4d3e 6cb3 003e
00000350: e0c9 9bbe f833 6ebe 6cec afbd f476 a43e
00000360: 2a51 ad3d 389b 4ebd 0fad 1e3e 741a b8bd
00000370: aba8 2bbe cbbf 6c3e c176 42be 1717 cfbd
00000380: 61c7 e1be 886e 273e 5032 523e d510 af3d
00000390: 54cf 96be d314 b5be c8f5 9cbe 6573 5e3e
000003a0: 7c97 243e 8e8a 893e 3461 503e c63b 003e
000003b0: 062e 823d a41e 88be 8ac4 5bbe 373b 6cbe
000003c0: 7318 4d3d ca4a 76be 4920 e3bd 5e4f 80be
000003d0: c5d4 fdbc 88a0 3abe 6add 69be 58b9 0e3e
000003e0: 0ffa 0bbd 3239 603e 11e0 d6bd 0937 63be
000003f0: 10ab bbbd d2e9 1fbe 51b8 bebd 2a85 95be
0.24290238 0.3571356 -0.09235783 0.14128196 -0.1029537 -0.028812205 -0.23094144 0.19333757
0.30236292 -0.2684636 0.33679745 0.13796645 0.055175293 -0.105262056 0.052157655 -0.16099283
0.20802496 0.15982978 -0.22452968 0.0066277487 -0.19589251 -0.11186033 -0.1960543 0.1758373
-0.18243596 -0.16115336 -0.056374148 -0.21522774 0.0040643504 -0.32513064 0.29978773 -0.28198117
0.27910095 0.06878084 -0.10964016 0.22837229 0.06833684 0.31857914 0.03739622 -0.124225944
0.087350294 -0.07253199 0.026201688 0.257558 0.25085977 -0.16505004 0.18503737 0.052084625
0.1325653 -0.21734507 -0.34685168 -0.16742891 -0.26986045 0.2625597 0.10660282 0.14582287
0.20805852 -0.07172213 0.19647954 -0.19001144 -0.09425869 -0.29575112 0.04609754 -0.12796906
0.072763294 -0.10056827 0.287954 -0.1793758 -0.1798984 -0.1710344 0.33970502 0.1619877
0.31117076 -0.2838205 -0.3657893 -0.27475005 -0.25639263 0.09347435 0.10924474 0.238818
-0.22105223 -0.25308713 0.17708933 -0.09255687 0.17013812 -0.06957128 0.22956264 -0.27180144
-0.15910648 0.14221634 0.084564365 -0.108088985 0.14131564 0.24752171 -0.24458608 -0.1849352
0.33309704 -0.11579479 -0.14469688 -0.34551316 -0.19202816 0.15529518 -0.13267794 -0.21793695
0.13298565 -0.19267136 -0.1846677 0.0069457926 -0.27194223 -0.20469193 0.3529349 0.087479465
0.12642406 -0.30103984 -0.20694326 -0.10349005 0.05695918 -0.3197886 -0.15672581 -0.0775613
-0.055203896 -0.16936842 0.10596791 -0.25705004 -0.24981636 -0.062747136 -0.15340614 -0.26470214
0.30540448 -0.101962686 0.26205927 0.12217764 -0.29110596 0.22770078 -0.063857734 -0.266342
-0.3451291 -0.42149177 0.0730008 -0.092367224 0.09203836 -0.16138564 0.32794386 -0.11175851
0.01471854 0.13016865 0.18043998 0.24425718 0.2742325 -0.31097406 0.059513107 -0.11821513
-0.026674334 -0.25458056 0.30048108 -0.24972388 0.07891707 0.066218495 0.029618295 -0.17690413
0.3933649 0.18325588 0.045129877 -0.2500332 0.21091157 -0.07996789 -0.1661631 0.3085257
0.06820534 -0.17363821 -0.13575925 0.028679535 0.16642305 -0.110852204 -0.16092749 -0.11920381
-0.3163672 0.1531993 0.24033166 -0.3162287 0.10768807 0.32879066 0.20402986 -0.15927848
0.11618273 0.15967965 -0.0032278046 -0.09549982 -0.062031534 0.06401907 -0.046122912 -0.113365576
0.28760907 0.2803809 -0.026091931 -0.09772137 -0.030265715 -0.022651313 0.10839537 0.092241675
-0.30703813 -0.14040779 0.23559658 0.08702211 -0.035913695 -0.270105 -0.28217733 -0.29952592
-0.13948408 0.11194399 0.20032589 0.12568444 -0.30427456 -0.23262012 -0.08590016 0.32122004
0.084627464 -0.050440997 0.15495704 -0.089894205 -0.1676356 0.23120038 -0.18990614 -0.10111826
-0.44097427 0.16350758 0.20527005 0.08548132 -0.29455054 -0.3536745 -0.30656266 0.21723707
0.16073412 0.2686352 0.2034958 0.12522802 0.063564345 -0.26585877 -0.21461692 -0.23069464
0.050072145 -0.24051967 -0.11090142 -0.25060552 -0.030985245 -0.182253 -0.22838369 0.1393789
-0.03417402 0.21896818 -0.10491956 -0.22188963 -0.09163487 -0.15616539 -0.09312499 -0.2920316

conv_layers.0.bias f4 [32]
00000000: 9d95 eab8 5104 b838 3bde 8bb7 cad1 79b8
00000010: 5034 d5b7 26ee 99b7 4ad0 0a3a 48a5 d939
00000020: ee78 bbb6 119c 3fb9 f92a 5f3a 1dda 2738
00000030: d804 8739 3a51 8337 14a9 1aba 5f30 05b8
00000040: 9e08 9738 c989 3338 2e65 7fb9 81a3 a4b6
00000050: b588 85b7 55a8 42b8 289e 9538 566d 17b9
00000060: 82cf 9037 29f6 a939 fc94 5837 0ebe a6b8
00000070: c597 41b8 6130 5639 1ba2 e0b7 de9b 45b8
-0.00011185857 8.774608e-05 -1.6673575e-05 -5.9561607e-05 -2.5415939e-05 -1.8349918e-05 0.000529532 0.0004151261
-5.5871124e-06 -0.00018273319 0.00085131783 4.0019037e-05 0.00025752815 1.5654241e-05 -0.00058998284 -3.175472e-05
7.201846e-05 4.2805248e-05 -0.00024356387 -4.9066152e-06 -1.5918495e-05 -4.6409976e-05 7.1343326e-05 -0.00014441213
1.7262766e-05 0.00032417596 1.2909291e-05 -7.950897e-05 -4.6156132e-05 0.00020426653 -2.6778367e-05 -4.7113623e-05

conv_layers.1.weight f4 [32]
00000000: 5303 8a3f 98cb 843f a537 493f c24f 813f
00000010: 5ddb 873f 2c7a 5c3f 7242 983f ea1b 813f
00000020: c552 3c3f 8774 593f 6579 903f 0247 4f3f
00000030: 940e 633f 83ed 3f3f 2e72 893f 913a 323f
00000040: de4e 833f be42 833f cfc4 5e3f b311 433f
00000050: c9a2 873f 77a0 853f a143 543f 41f9 613f
00000060: 2ef7 493f e795 813f 4a0e 4e3f 0fbd 523f
00000070: f565 903f b0c1 7f3f 9972 783f e932 543f
1.0782264 1.0374632 0.7860053 1.0102465 1.0613819 0.8612392 1.1895278 1.0086644
0.73563796 0.8494343 1.1287047 0.80967724 0.8869412 0.7497179 1.073797 0.69620615
1.0258443 1.0254743 0.87019056 0.7619888 1.0596553 1.0439595 0.82915694 0.88270956
0.7889279 1.0123872 0.80490553 0.8231973 1.1281115 0.9990492 0.9704986 0.8289018

conv_layers.1.bias f4 [32]
00000000: ebe6 3dbe 2738 3cbe 1055 2cbe 0d01 8e3e
00000010: f8c2 32be ba3e 8cbd bde8 abbc 349c 32be
00000020: a0f3 d7bd fef5 f6bd 4bcf b0bd 3606 19be
00000030: f8c0 81bd 626f d4bd cb1c 1dbe 4cf2 2ebe
00000040: 93a1 52be 5708 90be ec5e b6bd ad67 2abe
00000050: aee1 77be 800e 57be f08a d3bd 0f1c c1bd
00000060: b862 1cbe 6e9e 03be 2f91 07be 4285 4cbd
00000070: 7d4e 68bd 720f 0f3d 89ac 80be c186 2abd
-0.1854512 -0.18380795 -0.16829324 0.27735177 -0.17457187 -0.06847902 -0.020985002 -0.174424
-0.10544515 -0.12058638 -0.08633288 -0.14943776 -0.06335634 -0.10372807 -0.15343015 -0.17084616
-0.20569448 -0.28131363 -0.08904824 -0.16641112 -0.24207184 -0.21001625 -0.103292346 -0.0942918
-0.15272033 -0.12853405 -0.13238977 -0.049931772 -0.056715477 0.03492684 -0.25131634 -0.041632418

conv_layers.1.running_mean f4 [32]
00000000: 7001 e93b 5766 0d3b cdc2 b2bb 1d2f 1cbc
00000010: 838a 913b aa7b e53a 54ff 1b3c 39cb 76bb
00000020: f2eb c7bb 913e eeba 34c6 343b 2494 a5bb
00000030: 925c 8aba 2fb7 e5bb 98d8 1cbb b675 8fbc
00000040: b6b1 c33b d816 b3bb 39aa 843a 9895 4f3a
00000050: 7681 373c 6e9b edb9 ec12 5c3a cb1f bdbb
00000060: 224a cb3b a2d1 9e3b a8be fa3b 1737 f4bb
00000070: 581b 13bc e9d4 fdb9 8716 363b 9cef d1bb
0.007110767 0.0021575892 -0.005455351 -0.009532717 0.0044415607 0.0017508168 0.009521324 -0.0037657751
-0.006101125 -0.0018176605 0.0027583959 -0.00505306 -0.0010556153 -0.0070103626 -0.002393281 -0.017512184
0.0059721125 -0.0054653697 0.0010121531 0.00079187145 0.0112002995 -0.00045319967 0.00083951536 -0.0057716123
0.0062039057 0.0048467675 0.0076521225 -0.0074528563 -0.008978687 -0.0004841455 0.0027784423 -0.0064067375

conv_layers.1.running_var f4 [32]
00000000: 6f56 0c3f 73c8 2e3e 0276 4a3f 48c5 2b3d
00000010: fddb 243f fe54 903e a83d 3a3d 0296 093d
00000020: a566 d73e a7e5 0d3d 49b4 023d a090 5c3f
00000030: 64a2 503e c88e ae3f 2fa2 103d 321a 463f
00000040: 19aa 503e 55b4 2a3e e3dc 3a3d 3dbb 563e
00000050: d911 b53e db6b df3d 409c 823e 38ca c63d
00000060: d2b2 b13e 00c1 ab3d 7f4b d43e 8b20 dc3e
00000070: 17e2 bc3d 0069 033d 8e63 373e 6f7d 293f
0.5481939 0.17068653 0.79086316 0.04193619 0.64398175 0.28189844 0.045468956 0.033590324
0.420705 0.03464284 0.031910215 0.8615818 0.20374447 1.3637323 0.03531092 0.7738372
0.20377387 0.16670354 0.04562081 0.20969863 0.3536518 0.10909244 0.25509834 0.09706539
0.34706742 0.08386421 0.4146385 0.42993578 0.09222811 0.032082558 0.17909071 0.6620702

conv_layers.5.weight f4 [64, 32, 3, 3]
00000000: d798 1b3d c0a2 f33d 3999 c23d 3704 8e3d
00000010: 46cc 2e3d 581d d63c 715b d8bd cf2b bcbd
00000020: 3499 42bd 6069 e13c 0fa4 dd3d 5509 c83c
00000030: 3821 663b 1ab1 133b f44c 363d c393 debd
00000040: 4fdd 0ebd 1fec b23c 8b25 e2bc 11ed 0d3c
00000050: e100 5b3c d848 a8bb 2b51 4cbc f91b fdbc
00000060: b991 99bd 57a6 b9bc 6c1a 003d d032 e5bc
00000070: 48ff babd 0c62 98bc 2d2a 07bd e132 c7bb
00000080: 0a06 8b3d d4b3 8a3c 0ee1 3cbd 0f1e 50bc
00000090: 0c11 0d3e d2f0 a23d b1a7 1a3d a71f 943d
000000a0: 91f3 553c 5f87 493d bc5c d1bd f9c1 bdbd
000000b0: 77bf c7bb ad99 d23c fefd ef3c 7840 b1bc
000000c0: 3670 28bd 32fd 063c daed cc3c c943 cabb
000000d0: 8dae 0fbd 47da 0abd 7924 96bd 03b1 63bd
000000e0: 634e b2bd 7a1f 0a3e d923 f73d 9138 503d
000000f0: bc56 dd3d 00a4 2f3d c533 dd3d 4c79 9a3d
00000100: b6a1 ed3c 48f5 c43d d264 c8bd d41e 51bd
00000110: cc8b f13c 2094 fdbd 232d 09be 5c2c 14be
00000120: b7e2 443d 980a 153d a0f7 9c3c ae16 c6bc
00000130: cba5 87bc 3b4c 9ebc f544 9a3c 7915 b8bc
00000140: 95ae 7dbc 974b 303d b3bb ca3c bd6c 543c
00000150: 3d41 47bc 07f6 13bd ede6 01bd 8f6d 6ebd
00000160: a882 22bd fe46 49bc d4f8 813b 0852 a5bd
00000170: 02b2 a83d 62fe 59bd 401f c7bd 8e9b b6bd
00000180: 6882 e3bd 8f0b ffbd d820 a1bd 369a 3cbc
00000190: 682b 5c3c d4ed 0d3c 8c9a 0bbd 7b25 3e3d
000001a0: 51d1 833d 2d1a 1e3c b5b9 8dbc 06d4 f3bc
000001b0: c717 453c 32c2 173d dd29 323d 0e57 cbbc
000001c0: 72e5 57bc 061b e23c ee0e 59bd a70b c93c
000001d0: 2371 12bd ab46 2bbb 3890 5e3c deec 6d3c
000001e0: 4aaf dfbb 4626 823d e6d8 b73c 3f40 e73c
000001f0: b1c1 2d3d c2aa debc 7d4f 2cbd 7853 46bd
00000200: e7f2 c3bd eed5 94bd 3ada 76bd 7734 49bd
00000210: c342 afbd 4716 13bd d7ec 93bc d2e0 23bc
00000220: 35b7 93bc 3154 2e3d e11a c83c 8f52 a53c
00000230: 9e50 823c 167f 1e3c 6230 133d f00c 8dbc
00000240: f750 df3d b578 933d 2b69 8f3c adf0 0d3d
00000250: 2f5b 383d 4f7c 733d f59c e2bb 49b9 1dbd
00000260: b8f4 0e3d fcdd de3c 2e3d 5d3c c63e 8a3d
00000270: c6f1 7fbd a96a 47bd ffca dd3c 4d77 01be
00000280: ce71 f7bd ec07 c5bd 3b8c cbba 5059 0f3d
00000290: aa03 e7bc 4a45 02bd 2016 3d3d d312 d53c
000002a0: d9a0 993c aac1 383d dc81 28bc b95e 5f3d
000002b0: 8a30 3d3d 7826 c6bb 69bf bebb 96f1 243c
000002c0: a700 153c fcc6 173d d455 48bd 4d61 46bd
000002d0: 1fc7 563d cc65 563d 3ae9 7cbc 98af f43d
000002e0: 9c40 b43d 44f2 c03d 8ec9 9bbd 6435 91bc
000002f0: c12d 323d fc0e ca3d 61f4 c53d 6954 d73c
00000300: 8eee 483d da86 5fbd 7b5b 373d 536b d4bd
00000310: 891c e1bc 49a4 8ebd 1aa1 de3c ac3e 49ba
00000320: 25f4 1cbc 2297 423d 3824 d73b f588 043d
00000330: 3eb8 083c 2715 8abd 82cb a9bc 147e 163b
00000340: 2a93 3abc 4f1a d13b 9c36 3abc d4cf 20bc
00000350: d4e7 53bb 8455 263d 5abd 4f3d 1fff 45bb
00000360: 2439 35bd 37c3 f83c 1160 cfbc 6307 1a3d
00000370: 3394 a4bc 03c6 203c bb35 3bbd 93fb 0e3b
00000380: 514d 1dbc 5431 4c3d 81fc 783d e563 da3d
00000390: 95ac 19bc 7ad0 24bd 9ca5 9cbc f8d9 9abc
000003a0: 7c6d 64bd db08 da3b d637 303b 8648 83bc
000003b0: 5c33 d43c 05a0 b83b d7db 4b3d 0bcd 693d
000003c0: 7ad5 713c 6a65 903c 529a 18bd 7add 00bd
000003d0: 4c54 16bb 3eeb 1abd f3c1 3fbd 39b6 66bc
000003e0: f013 04bd bce6 3dbd f2c5 e4bc 31cc 1ebd
000003f0: fdcd 17bd a00e 3c3b 9cd5 1b3d 058a 0ebe
0.037987556 0.118962765 0.09501881 0.06934398 0.04267528 0.026137039 -0.10564316 -0.09188043
-0.047509387 0.027516067 0.10822307 0.024418512 0.0035115015 0.002253598 0.044506982 -0.10868027
-0.034879025 0.021841107 -0.027605793 0.008662478 0.013366909 -0.005135637 -0.012470524 -0.030897127
-0.074984975 -0.022662325 0.031275198 -0.02797833 -0.09130722 -0.01860144 -0.032999206 -0.0060790633
0.06788261 0.016931452 -0.046113066 -0.012702479 0.13776034 0.07956089 0.03775758 0.072326
0.013058559 0.049201366 -0.10222766 -0.09265513 -0.0060958224 0.025708044 0.029295918 -0.021637186
-0.041122638 0.008239077 0.02501576 -0.0061726314 -0.035078574 -0.03389957 -0.07331175 -0.055588733
-0.08706357 0.1348857 0.12067384 0.050835196 0.10807559 0.042881012 0.1080089 0.07542667
0.029007774 0.09617096 -0.09784855 -0.05105479 0.029485606 -0.12381768 -0.13396125 -0.14470047
0.048067775 0.036387056 0.019161046 -0.024180736 -0.016558548 -0.019323459 0.01883171 -0.022471176
-0.015483518 0.043040838 0.024747705 0.012965378 -0.01216155 -0.0361233 -0.03171437 -0.058209952
-0.039675385 -0.012284992 0.00396643 -0.08072287 0.08237077 -0.053221114 -0.09722757 -0.089163885
-0.111088574 -0.124533765 -0.078675926 -0.011511376 0.013438083 0.00866266 -0.034082934 0.046422463
0.06436408 0.0096497955 -0.017300466 -0.029764187 0.012029595 0.037050433 0.043496955 -0.024821784
-0.013177263 0.027600776 -0.052992754 0.02454169 -0.035752427 -0.002613465 0.013584189 0.014521806
-0.006826316 0.06354956 0.022442292 0.028228877 0.042421047 -0.027181033 -0.042067993 -0.048419446
-0.09567814 -0.07267366 -0.06026671 -0.0491223 -0.08557656 -0.035909917 -0.01805727 -0.010002332
-0.018031696 0.04256076 0.02442688 0.020180969 0.015907582 0.009673854 0.035934813 -0.017218083
0.10904115 0.072007574 0.017506203 0.034653354 0.045008834 0.05944472 -0.0069156834 -0.03850678
0.03490135 0.02720546 0.013503356 0.06750254 -0.062486432 -0.048685703 0.027074335 -0.12643166
-0.120822534 -0.096206516 -0.0015529463 0.034997284 -0.02819999 -0.03180436 0.04616368 0.026009953
0.018753456 0.045106567 -0.010284867 0.054533694 0.04618887 -0.0060470663 -0.0058211577 0.010067364
0.009094394 0.037055 -0.048909977 -0.048432637 0.05243599 0.052343175 -0.015436465 0.11947554
0.08801386 0.094212085 -0.07606803 -0.017725654 0.043500666 0.09866139 0.09665752 0.026285367
0.04905563 -0.054571964 0.044764977 -0.10372033 -0.027479427 -0.06964929 0.027176429 -0.00076768803
-0.009579693 0.047507413 0.006565597 0.032357175 0.008344708 -0.06742316 -0.020726923 0.0022963332
-0.011387626 0.00638131 -0.011365559 -0.009815175 -0.0032334225 0.040608898 0.05071769 -0.0030211878
-0.044243947 0.030366523 -0.025314363 0.0376047 -0.020090198 0.009812835 -0.04570554 0.002181743
-0.009600953 0.04985173 0.06078768 0.106635846 -0.009379526 -0.04023788 -0.019121937 -0.018902764
-0.055768475 0.0066538877 0.002688875 -0.016025793 0.025903396 0.00563431 0.049770202 0.05708031
0.014760369 0.017626483 -0.037256546 -0.031461217 -0.0022938428 -0.037822 -0.046815824 -0.014081531
-0.032245576 -0.046362624 -0.027926419 -0.03876895 -0.03706168 0.002869524 0.03804551 -0.13919838

conv_layers.5.bias f4 [64]
00000000: 5c3f 2934 7df5 e436 3f75 f5b7 713c 59b6
00000010: 014e 4537 7ae4 b9b6 b1bd 6e37 b854 db35
00000020: 8054 7037 4dd3 1e38 8073 2037 5766 e336
00000030: 1570 c3b5 4c74 2cb7 abf4 b1b7 3fda e9b6
00000040: 2837 fe36 388d 2038 b889 6bb8 3ac6 9638
00000050: 264c 1eb8 b182 df37 0322 92b7 b01b f036
00000060: a797 0cb7 658f 97b7 0ec0 f3b7 6985 e435
00000070: 6ffc c237 badc 32b8 aa61 1538 fb73 5537
00000080: 2651 33b7 298e d536 8f0b 0fb8 865c 3038
00000090: 4102 3ab7 fdfc 0f37 61d2 9838 ca4f fe36
000000a0: 079a 2e37 b93b 5ab6 d7be 2338 7a96 52b5
000000b0: 2100 9535 20cc 1a37 3a0b da37 9cd6 1ab7
000000c0: 02f7 5037 3e10 ee37 b1d4 f7b6 fb4e b136
000000d0: 9293 45b8 f92d 1538 b0bd bc36 f402 c437
000000e0: c72b cfb6 f40a 4037 ea1e d834 5b67 81b7
000000f0: 3827 4436 324b 3fb7 daa6 9d37 240a 88b7
1.5762402e-07 6.823508e-06 -2.9260873e-05 -3.2370701e-06 1.1760277e-05 -5.540028e-06 1.4230071e-05 1.6341428e-06
1.4324789e-05 3.7866925e-05 9.563635e-06 6.777041e-06 -1.4561252e-06 -1.0279076e-05 -2.1213977e-05 -6.9693483e-06
7.576211e-06 3.8278493e-05 -5.6156627e-05 7.18948e-05 -3.7741054e-05 2.664453e-05 -1.7420394e-05 7.1557806e-06
-8.37996e-06 -1.8067376e-05 -2.905729e-05 1.7026151e-06 2.324415e-05 -4.2644075e-05 3.5615325e-05 1.2722793e-05
-1.0688125e-05 6.3644443e-06 -3.410462e-05 4.204784e-05 -1.1086989e-05 8.582368e-06 7.287111e-05 7.5790786e-06
1.04070705e-05 -3.2519295e-06 3.9039962e-05 -7.845007e-07 1.1101403e-06 9.226642e-06 2.5992853e-05 -9.229083e-06
1.2455277e-05 2.8379374e-05 -7.385934e-06 5.2842056e-06 -4.7105896e-05 3.5567184e-05 5.624919e-06 2.3366396e-05
-6.174177e-06 1.1446642e-05 4.0255628e-07 -1.5426127e-05 2.9229104e-06 -1.1401995e-05 1.8793555e-05 -1.6217185e-05

conv_layers.6.weight f4 [64]
00000000: c6f7 753f 31ea 6d3f f48d 8d3f 3d52 833f
00000010: ca82 873f ecb3 4c3f 3cb4 793f b533 4c3f
00000020: 4e76 4a3f 12c7 863f 18a6 8d3f 3680 943f
00000030: d3e0 533f 46aa 583f d00c 853f d3c5 583f
00000040: 7144 773f 508e 863f c9e9 743f 5bf5 873f
00000050: 65b5 6c3f e06f 603f 95f0 663f d81b 813f
00000060: 4849 8f3f 5d59 8a3f 0064 873f c4c2 6a3f
00000070: 6c26 7c3f c343 6b3f 0529 833f 5b3a 683f
00000080: 41b0 613f 8917 583f 3363 923f d5de 7e3f
00000090: 905d 743f f7e7 8b3f 11c0 8b3f eecc 583f
000000a0: f85e 603f a1e7 5a3f da4c 8f3f 8499 6a3f
000000b0: e73e 4c3f 7a6c 6f3f 02ab 953f 168b 783f
000000c0: 44d2 7f3f e974 713f c7c9 713f c4e2 5a3f
000000d0: 715f 823f 0f91 893f 201d 783f 7a26 803f
000000e0: 7fab 683f 86ee 873f 9a64 7a3f 5f1b 793f
000000f0: b89d 8f3f a530 923f f472 713f 3824 8d3f
0.960812 0.9293547 1.1058946 1.0259472 1.0586789 0.7996204 0.9754064 0.797664
0.7908677 1.0529501 1.1066313 1.1601627 0.8276493 0.84634817 1.0394535 0.84676856
0.9658881 1.051218 0.9566923 1.0621752 0.92464286 0.8767071 0.9021085 1.0086622
1.1194239 1.0808522 1.0577393 0.9170344 0.9849613 0.9190027 1.0246893 0.90714043
0.8815957 0.8441091 1.1436523 0.99558765 0.95455265 1.0930165 1.0917989 0.846877
0.8764491 0.8550969 1.1195328 0.91640496 0.7978348 0.935249 1.1692812 0.9708723
0.99930215 0.94319016 0.9444851 0.85502267 1.0185376 1.0747393 0.9691944 1.0011742
0.9088668 1.0619667 0.97809756 0.9730739 1.1220007 1.1421095 0.9431603 1.1026678

conv_layers.6.bias f4 [64]
00000000: 55db 95be 8720 35be fad0 51be f1cb a4bd
00000010: 9737 f6bd 3473 3dbe 2974 cbbd d1fd 45be
00000020: 95bd 1ebe 8f8b 38bd 3507 203d 7ec2 cc3c
00000030: 2b44 32be 98b4 9abd 2ec6 dfbd 4e4d 01be
00000040: 0289 9dbd 6529 28be 0a57 1dbe 2267 0bbd
00000050: ae7c 0abe 70b0 63be 246c 93bd 9dde 04be
00000060: 9382 16be df28 48bd 706a 42be 79ce 2bbe
00000070: a287 20be 71bf 6cbd 5bf7 f2bd bf3a a8be
00000080: 01e1 a9bd a4f2 5cbe 00f9 c4bd 9a16 8fbe
00000090: 1f51 4dbe 72ed 1dbe c9a1 07bd 63de 52be
000000a0: 03c4 e9bd 4f12 8dbe f8c1 84be edf3 34be
000000b0: 7166 29be 1f9a 04be 9bfb b4bd a396 b3bd
000000c0: 930c 0f3e 5c1c efbd 102d 19be 798c 0fbe
000000d0: 97a7 75be ed64 17bc f02c f3bd 7575 08be
000000e0: 6743 17be 1165 d9bd 749a 99be 7823 f8bc
000000f0: dafd 2a3d 23e2 0cbe ca62 05be 0000 a33b
-0.292689 -0.1768819 -0.20489874 -0.08046711 -0.12022322 -0.18500978 -0.09934265 -0.19335105
-0.15502007 -0.04505497 0.039069373 0.024995085 -0.17408817 -0.07553977 -0.10926472 -0.12627146
-0.07692148 -0.16422041 -0.15365234 -0.034033902 -0.13524124 -0.22235274 -0.071983606 -0.12975545
-0.14698248 -0.048867103 -0.18985915 -0.16777982 -0.1567674 -0.05779976 -0.118635856 -0.3285732
-0.08294869 -0.21576935 -0.096178055 -0.2794693 -0.20050476 -0.1542261 -0.033113275 -0.20592646
-0.114143394 -0.2755303 -0.25929236 -0.17671175 -0.16542985 -0.12949418 -0.088370524 -0.08768966
0.1396964 -0.11675331 -0.14958596 -0.1401843 -0.23989712 -0.009240371 -0.118738055 -0.13326056
-0.14771806 -0.1061498 -0.3000065 -0.03029035 0.041745998 -0.1375814 -0.13025966 0.0049743652

conv_layers.6.running_mean f4 [64]
00000000: cf60 51bf d8cb c03f e4a5 97bf c78c 05c0
00000010: e9d2 bebf 7863 f3bf 21f8 6cbf bf32 c1bf
00000020: 96e5 d2bf be46 21bf f107 5fbf f4e2 8dbf
00000030: d10b 3840 9f56 c7bf 9c10 9ebf ca2e b23f
00000040: 1778 28c0 57d2 63bf 735b 81bc a878 40bf
00000050: 7697 bbbf 5924 613d c824 33bf 2985 f4bf
00000060: 8041 e9bf 71a3 38bf 9f75 afbf 0ffb 943f
00000070: fbcb 25bf 94e7 5fbf fb83 b93f e2b9 23bf
00000080: c780 b5bf 0ea5 e8be bc2c 9ebf 0bff cbbe
00000090: 410f 8cc0 5741 c8bf 2990 5dbf 8e77 f5be
000000a0: b215 e63e 3e4e 60bf 44a1 54bf 33a9 8d3f
000000b0: d818 dfbf be84 5ac0 fd92 72bf 48f3 f53f
000000c0: 8fb4 f0bf cedc 25c0 2bf0 27be df04 f33f
000000d0: 7935 943f d850 91bf 64dc d93f de85 81c0
000000e0: 8d87 0ec0 a68c 58bf 4cda a0be 3cc5 d9bf
000000f0: ade4 8fbf b364 89bf 2120 95c0 8828 9cbf
-0.81788343 1.5062208 -1.1847501 -2.0867174 -1.4908115 -1.901473 -0.92566115 -1.5093611
-1.6476314 -0.6299857 -0.8712149 -1.1084886 2.8757212 -1.557331 -1.2348819 1.3920529
-2.6323297 -0.8899283 -0.015790677 -0.75184107 -1.4655597 0.054966304 -0.69978 -1.9103137
-1.8223114 -0.7212439 -1.370777 1.1639117 -0.64764374 -0.87462735 1.4493402 -0.6395551
-1.4179925 -0.45438427 -1.2357402 -0.3984302 -4.376862 -1.564494 -0.86548096 -0.47942775
0.44938427 -0.8761939 -0.8305857 1.106726 -1.7429457 -3.414352 -0.94755536 1.9214869
-1.8805102 -2.5916018 -0.1640021 1.8985862 1.1578819 -1.1352797 1.7020383 -4.047591
-2.2270234 -0.8458961 -0.31416547 -1.7013316 -1.1241661 -1.0733856 -4.660172 -1.2199869

conv_layers.6.running_var f4 [64]
00000000: d683 1140 367b 6640 6e75 3440 a735 8340
00000010: 0dc1 5540 543e 8941 e9b7 0340 f6d9 dc40
00000020: 38f7 ef40 fe47 7b3f 07d8 d13f 81c5 e43f
00000030: 1534 6041 00d2 9540 8ade fd3f f3f1 1140
00000040: ae88 0b41 d4ef b93f 34e3 cb3f 7c49 9d3f
00000050: b7d5 f83f 7bd1 0740 ce1e fe3f c137 3440
00000060: 0056 8740 342b 0e40 662d 0f40 1f16 4040
00000070: 7835 303f 0b09 f43f 219c 6540 3560 f03f
00000080: 2038 9741 a702 d73f 07f7 ed3f 1f31 1440
00000090: 3d11 5141 adec 1040 f984 893f 03ba 9a3f
000000a0: abfc f13f f9a8 de40 358c 2f40 8b7b 6340
000000b0: 7ace 8741 b567 0941 c402 1e40 3886 a140
000000c0: b42e 8040 baf3 a840 726f c23f ca0b 2f41
000000d0: 85a6 7340 6858 4240 b052 9d40 95bd 1b41
000000e0: 001f 9f40 eb0b 0740 1383 5240 e966 8040
000000f0: 1fde 3340 0997 de3f 99e3 1d41 fcee d03f
2.2736716 3.6012702 2.8196673 4.1002994 3.339908 17.155434 2.0581 6.9016066
7.498928 0.98156726 1.6394051 1.7872773 14.012715 4.681885 1.9833539 2.2803924
8.720869 1.4526315 1.5928712 1.2288051 1.944022 2.1221607 1.9853151 2.815903
4.229248 2.221387 2.237146 3.0013502 0.68831587 1.906526 3.5876544 1.877936
18.902405 1.6797684 1.8591012 2.315498 13.066709 2.2644455 1.0743705 1.2088016
1.8905233 6.9581265 2.7429326 3.5544155 16.975819 8.587819 2.4689188 5.047634
4.005701 5.279752 1.519026 10.940378 3.8070385 3.036646 4.9163437 9.733785
4.972534 2.1101024 3.2892501 4.0125623 2.8104322 1.7389842 9.868066 1.6322932

conv_layers.10.weight f4 [128, 64, 3, 3]
00000000: fd2b 55bd b1f8 f9bc 5e8e cbbd d7d2 65bd
00000010: b633 76bd b800 25bd a6ff 07bc f1eb 383c
00000020: 0008 debc 29b6 80bd 448b d7bc 2c52 61bd
00000030: f5d4 1b3c 1637 c9bb 7352 65bd d58d 89bd
00000040: 192f 81bd 6f1c 99bd 1dfa 943a 15b5 8fbc
00000050: 4e77 48bd 1edf 07bb 632a 053b 0683 29bd
00000060: 6fce b2bd 5fed bcbd df74 98bd 364b a23d
00000070: f867 6c3b 07d6 4bbc 3938 433d 18b3 0f3d
00000080: 9877 243d b9e8 1e3d 92c5 3f3d 83b2 ca3b
00000090: 4337 c9bc f1d0 af3b 02b1 4cbc b40d a2bc
000000a0: e68d b03c 78eb f9bb 1d4f 69bd 6537 1b3c
000000b0: 595a 42bb 9ca9 123d 2f13 b7bc 8264 1c3d
000000c0: 4cba db3c 0b63 833c b392 7a3c 8c9e ab3d
000000d0: b95a 8c3d 1bfb c63d a44c 9c3c e77a 51bd
000000e0: 95ef 2f3d 35e0 55bd a517 6bbd a99f 86bd
000000f0: 180b 5f3c 84a9 a4bc d610 38bc 0fcb d83c
00000100: 5cc9 1f3d 3609 4e3d 8ac2 dcbb 0e21 4d3c
00000110: db24 c53c 45b7 753d 9ec3 a43c 9ba7 923d
00000120: eebd 02bc 5879 7fbc bd90 21bd 51cc 893b
00000130: 6c31 d3bc 9f7f 49bd bbb1 383d 591a 143d
00000140: c54e 4a3d e05c 253d eae7 cc3b f2b8 243d
00000150: 8212 ca3c bef7 80bd 8987 7bbd 1019 adbc
00000160: 8312 81bc 5876 51bd 41ca 913c 6419 8c3d
00000170: dbc4 61bc 932a 8dbd 822a d3bd f262 c4bd
00000180: 0664 1bbc aadf 62bc b4ca f93b 7ebb d13b
00000190: 5f59 853d e98a 253d 834e 87bd e4d4 38bd
000001a0: 247c babd fc92 2d3d 5ca3 713a 7c4b 863c
000001b0: 8a28 afbc af49 eebc 5a24 803b ca4d 1bbc
000001c0: 0bd1 c6bc 7fba b5bc a03e ff3c f0af 6b3c
000001d0: bc96 8e3c d808 353d 0b4c 453d b8c8 cdbb
000001e0: 3f0f 273a 9791 493d 2e5e b83b 2f9e b1bb
000001f0: 4346 a2bc f1f2 f93c 6c40 f13b 4545 1b3d
00000200: 731c cd3a b926 f7bc bb70 e63c f3bd f53b
00000210: f7b7 6c3c ef9d 853c 1b67 0b3d ca57 c7bd
00000220: 2cb7 9fbd c863 abbd 45aa c5bd ac60 7bbd
00000230: e5dc c0bd 1dd1 b0bd a5ea fcbd c0a6 d3bd
00000240: e85e e8bb c3ed 143b 988e 753b 4b05 92bc
00000250: 8f47 3b3b a6fe 3c3d 976f 513d 1e04 5b3d
00000260: 02f4 b83c 789a b5bc a00f d3bc 9c02 25bd
00000270: afe3 7abc b8e1 25bc a89a 6f3c c049 273d
00000280: fef6 05bb 5b94 6d3c be6a ecbd 00ba 9dbd
00000290: 158e 7bbd d6cd 89bc 66f2 74bd 88b1 16bc
000002a0: eee1 b0bd 2062 84bd 290b 0fbd c42e 163d
000002b0: e068 943c ab07 44bc f280 b03c f32b 0ebc
000002c0: 0afe 083d c6c2 b43d cdb4 ca3d a77a d53d
000002d0: ab31 993d a741 233d f6cf 983d ab6d 733c
000002e0: 9c1d 2cbd 8333 b23b 2829 ce3d 666e b13d
000002f0: c845 f13d 73a8 2fbc eea6 ebbb 0ca2 48bd
00000300: b980 0fbc 7799 29bd bcb3 13bc 820e 02bd
00000310: 7bcb 1cbd 9861 34bd 4e6f 033d 39b6 e9bb
00000320: dc8d 523d e1dd e7bc 18d0 8fbd 486a 263c
00000330: ff4c 3d3d e045 933d 8e1b 573d eeb5 5a3d
00000340: baa7 743d d627 eb3c b733 013e 0d64 793d
00000350: a832 bb3d c7b0 013e 5379 143d ee6c 413d
00000360: 910d bc3c 0acd fd3c 0e21 f93c d9eb ee3c
00000370: 86c6 b13c 31c6 6f3d 58c6 f1bb 2659 2bbd
00000380: 918d 7ebb 6827 92bc d58c 47bd 332f d0bc
00000390: c232 87bd cfe4 d6bd fce6 65bd 8acd 6d3d
000003a0: dc4c 063d a0ed 463b c41d d93d 1d07 9e3d
000003b0: 8b18 74bc fb92 8e3a 0a51 7fbc 3b9c 83bd
000003c0: 1c3b 9dbb 4ef7 3a3d dfa8 683d 57c9 27bc
000003d0: dda9 94bd 9e3b 94bc 5102 003d c318 e63c
000003e0: 49c2 6f3d c455 10ba d823 5d3c ccb6 6c3d
000003f0: 6d61 26bd 2856 1f3c 4ea0 fdbc c45e abbc
-0.052043904 -0.030514093 -0.09939264 -0.056109276 -0.06010791 -0.04028389 -0.008300697 0.011286722
-0.027103424 -0.06284744 -0.026311524 -0.055010006 0.009511222 -0.0061406 -0.055986833 -0.067165054
-0.06307811 -0.074761264 0.0011366043 -0.017542401 -0.048941903 -0.0020732353 0.0020319454 -0.04138472
-0.0873078 -0.092249624 -0.074441664 0.079245016 0.0036072712 -0.012441165 0.04766104 0.035082906
0.040153116 0.03879616 0.046819277 0.006185831 -0.024562484 0.005365484 -0.012493374 -0.019781925
0.021552037 -0.007626947 -0.056960214 0.009473656 -0.0029655902 0.035806283 -0.022348015 0.03818179
0.026822232 0.016038438 0.015293765 0.0837985 0.068532415 0.09715863 0.019079514 -0.0511426
0.042953093 -0.052215774 -0.057395596 -0.065734215 0.013613485 -0.020100363 -0.011234483 0.026464013
0.03901039 0.050301753 -0.006737058 0.012520088 0.024065426 0.059989233 0.020112809 0.071608745
-0.007979853 -0.015592895 -0.039444674 0.0042052646 -0.025780402 -0.049193975 0.045091372 0.03615794
0.049391527 0.040371776 0.0062532322 0.04021544 0.024667028 -0.06297253 -0.061408553 -0.021130115
-0.015755897 -0.051138252 0.017796637 0.068407804 -0.013779844 -0.06892886 -0.10310842 -0.09589185
-0.009484297 -0.013847271 0.007623041 0.0064005246 0.06511187 0.04041568 -0.06606772 -0.045124903
-0.09105709 0.042376503 0.0009217763 0.016393416 -0.021381635 -0.02908787 0.0039105834 -0.009478996
-0.024269601 -0.022183655 0.031157792 0.0143852085 0.01740586 0.044197887 0.048168223 -0.006280031
0.0006372816 0.04921111 0.0056264615 -0.0054204683 -0.019808894 0.030511351 0.007362416 0.037907857
0.0015648737 -0.030169832 0.028129926 0.0074994504 0.0144481575 0.01631066 0.034033876 -0.09733541
-0.07798609 -0.08368641 -0.09651617 -0.06137149 -0.09417132 -0.08633635 -0.123494424 -0.103345394
-0.007091392 0.0022724725 0.0037469026 -0.01782479 0.0028576588 0.04614129 0.05113181 0.053470723
0.02257729 -0.022168383 -0.025764287 -0.04028569 -0.015313073 -0.010124616 0.014624275 0.040841818
-0.0020441408 0.014500703 -0.11543797 -0.07701492 -0.061414797 -0.016821783 -0.05980148 -0.0091976
-0.08636843 -0.06464028 -0.034922753 0.036665693 0.018116415 -0.011964719 0.02154586 -0.0086774705
0.033445396 0.088262126 0.09897766 0.10423785 0.074801765 0.039857533 0.074615404 0.01485769
-0.042020425 0.0054382696 0.10066444 0.08663635 0.11780888 -0.010721314 -0.0071915304 -0.048982665
-0.008758717 -0.04140612 -0.00901502 -0.031752117 -0.03827999 -0.044038385 0.03208857 -0.0071323183
0.05140482 -0.028304042 -0.070221126 0.010157175 0.046216007 0.07191062 0.052516513 0.053396158
0.05973027 0.028705519 0.12617384 0.06088643 0.09140521 0.12665091 0.036248516 0.047223024
0.022955688 0.03098156 0.03041127 0.029165195 0.021701109 0.05853862 -0.0073783807 -0.041833065
-0.0038841704 -0.017841056 -0.048718292 -0.025413131 -0.06601478 -0.104928605 -0.056128487 0.058057345
0.032788143 0.0030354038 0.106013805 0.077162005 -0.01489843 0.0010877544 -0.015583286 -0.06426283
-0.004798306 0.045646004 0.056801673 -0.010240874 -0.07258961 -0.018094834 0.03125221 0.02808798
0.058534894 -0.0005505944 0.013497315 0.057791516 -0.040620256 0.009725131 -0.030960228 -0.020919211

conv_layers.10.bias f4 [128]
00000000: ffe8 82b7 a0da 3ab7 0f10 dfb7 e32c 3036
00000010: a8f6 90b6 861d 3b37 e098 81b6 5b96 b437
00000020: 2cdc 8536 2367 1bb8 a0f7 a037 ed9a f636
00000030: 2d00 0336 20f7 50b8 df78 9537 da1d 0337
00000040: f327 4437 2dc5 1735 1cc9 e735 a6b4 21b6
00000050: 14c4 27b6 810b ac35 4acf ecb6 fe15 1cb6
00000060: f664 03b7 8385 0bb7 7ab8 aa37 b7fb 1638
00000070: 1b42 8d37 32f1 ab36 796c e2b7 e0d7 3cb7
00000080: 96f3 0236 2d64 a9b7 91dc 8237 a37b 82b6
00000090: 63ff 4c37 6d6a e8b7 b411 a235 c0d2 33b7
000000a0: 785e 4136 fdbc 8137 86f6 3336 3986 e8b7
000000b0: 1dbd 9d35 b4b4 dfb6 9eeb 3838 4aa9 9637
000000c0: 6b4e bab6 d418 3736 01e3 9ab7 92ed 37b6
000000d0: 07bb a537 16a9 c8b6 8bf2 f0b6 2421 9a36
000000e0: 600a 6137 d96a 6836 4aa5 1237 84dc 3db6
000000f0: 3cc5 e1b7 7b66 c5b6 06dc f1b7 466c ac36
00000100: 0f7b f837 6885 26b7 93a6 11b7 04ad 1f37
00000110: ac3b 1f38 b17e e6b6 c394 1137 8e9a 2ab7
00000120: e7c3 edb5 8b8f e6b5 1259 22b5 a156 13b7
00000130: 25e6 6a37 3820 c3b6 ee0e e335 a8c2 7936
00000140: 59d7 3038 8b41 6d38 62ed 8336 297a 3237
00000150: 6c0f a6b6 77a6 a937 88ae 32b5 8a9f 74b6
00000160: 34af 4ab7 04fd 47b7 0094 b3b6 311b d937
00000170: 950b ac36 805b f1b7 8e94 ecb5 45ef c2b6
00000180: 7075 2a38 b617 c6b7 a261 47b4 738f 8ab6
00000190: d6be cab7 ac6d bab6 e372 5bb6 7f2a 8037
000001a0: da65 05b7 3de5 1038 6a0c 5cb7 32e3 23b7
000001b0: 313e de36 7a91 1637 7deb db37 e2ac 81b4
000001c0: e85a 2d36 4c83 6fb5 17fe a937 8e09 a8b4
000001d0: 6722 0838 b43c 88b7 3cf0 74b6 375b 20b8
000001e0: 1887 3ab6 c6ba de35 5716 0837 3b98 3137
000001f0: 2e31 8d35 d77f c535 33c3 0538 33cd 9b38
-1.5605705e-05 -1.11373665e-05 -2.659115e-05 2.6252171e-06 -4.320249e-06 1.11529425e-05 -3.8622966e-06 2.1527687e-05
3.9893403e-06 -3.7050933e-05 1.9188796e-05 7.349407e-06 1.9520623e-06 -4.9821218e-05 1.781847e-05 7.815159e-06
1.1691812e-05 5.653881e-07 1.7269372e-06 -2.409602e-06 -2.4999072e-06 1.2818347e-06 -7.0574797e-06 -2.3258613e-06
-7.831715e-06 -8.316131e-06 2.0351483e-05 3.5997215e-05 1.6839293e-05 5.124276e-06 -2.6991811e-05 -1.12559355e-05
1.9513295e-06 -2.0193018e-05 1.5599917e-05 -3.888695e-06 1.2218809e-05 -2.7706114e-05 1.2075093e-06 -1.07183005e-05
2.881423e-06 1.5466003e-05 2.6816574e-06 -2.7719057e-05 1.1752451e-06 -6.6669545e-06 4.4088454e-05 1.7960225e-05
-5.552361e-06 2.7283577e-06 -1.8463938e-05 -2.740741e-06 1.9756624e-05 -5.9801487e-06 -7.180793e-06 4.5934157e-06
1.3413461e-05 3.4632887e-06 8.7407625e-06 -2.8291552e-06 -2.6913935e-05 -5.882988e-06 -2.8831895e-05 5.138604e-06
2.9621207e-05 -9.925432e-06 -8.681457e-06 9.517422e-06 3.7964128e-05 -6.869283e-06 8.67731e-06 -1.0168775e-05
-1.7714891e-06 -1.7178112e-06 -6.047932e-07 -8.782053e-06 1.4001072e-05 -5.8152036e-06 1.6917163e-06 3.7217196e-06
4.2162228e-05 5.6566245e-05 3.9317392e-06 1.0638069e-05 -4.948981e-06 2.0223886e-05 -6.6564144e-07 -3.6451697e-06
-1.2080931e-05 -1.1920234e-05 -5.351845e-06 2.5881078e-05 5.127348e-06 -2.8772047e-05 -1.7626605e-06 -5.809505e-06
4.064053e-05 -2.361448e-05 -1.8568838e-07 -4.12942e-06 -2.4169141e-05 -5.5559995e-06 -3.2700416e-06 1.5278578e-05
-7.951132e-06 3.454577e-05 -1.3115912e-05 -9.768455e-06 6.6233556e-06 8.974568e-06 2.6216492e-05 -2.415391e-07
2.5831923e-06 -8.92255e-07 2.026469e-05 -3.129939e-07 3.2456966e-05 -1.624073e-05 -3.6498668e-06 -3.8231923e-05
-2.7794795e-06 1.6594647e-06 8.111433e-06 1.0585466e-05 1.0519632e-06 1.471485e-06 3.1891464e-05 7.429197e-05

conv_layers.11.weight f4 [128]
00000000: 404d 6f3f 5d86 6f3f bcee 743f 7e70 783f
00000010: 6f53 803f 73b2 6b3f 5e13 533f 14fb 783f
00000020: eaf0 8d3f 231c 743f c3c3 833f 4146 7d3f
00000030: 6bad 773f 91f5 793f a5c9 883f ab23 743f
00000040: a63f 7a3f 4c68 7c3f d1b6 563f 0d1c 653f
00000050: a469 633f 9478 553f 8de5 7c3f 49a2 683f
00000060: b864 803f 14f7 6a3f 4cab 7b3f 9518 743f
00000070: a638 763f 51c6 6c3f ac87 833f 04ef 853f
00000080: 7c96 723f 377b 863f f8b0 7a3f 52cf 543f
00000090: 0c5c 7f3f 78a4 763f db34 6e3f ca6d 753f
000000a0: 89aa 873f f8b3 803f ae5e 653f 60dd 7d3f
000000b0: a196 6f3f 79c1 7e3f 508b 8c3f 4f6c 653f
000000c0: 72e6 6b3f 88d0 6e3f 0839 733f b4a8 723f
000000d0: d4f4 703f a29b 653f 142d 813f c984 663f
000000e0: 4661 813f e287 6c3f abd7 6d3f ffc8 543f
000000f0: a82a 8b3f d4c2 783f 4ce1 8c3f 1c7f 8b3f
00000100: 01a3 823f b40f 8a3f b364 863f 7a20 7e3f
00000110: 4e56 843f 7542 883f cdb8 7e3f 7b43 793f
00000120: daa6 703f a4bc 7f3f e575 6c3f bf68 613f
00000130: cbaf 5c3f 8796 803f 099f 683f a86d 4e3f
00000140: 357e 8a3f 4136 833f a930 6a3f d5d6 853f
00000150: 391d 803f 8d9c 7b3f e155 7a3f 32f2 563f
00000160: 1710 843f 7104 7f3f efd4 573f 26c2 873f
00000170: 5021 543f cf22 823f 15c2 793f 9c8c 7e3f
00000180: 0ee5 833f df25 823f f5e4 713f 9d5a 713f
00000190: caf0 853f fa8b 623f 3b1a 613f 6397 5e3f
000001a0: 3a37 5f3f ded8 833f 297b 7b3f a6b7 833f
000001b0: 0487 8b3f ce94 613f 31a8 823f aee4 653f
000001c0: 9fd4 663f c594 6d3f 8f02 823f 7293 6e3f
000001d0: e539 853f dada 7f3f 58d4 5e3f b93d 863f
000001e0: ee83 763f 0fc3 683f 1056 803f 6fa4 833f
000001f0: c852 743f 4989 693f afe3 793f 9d48 893f
0.9347725 0.935644 0.9567678 0.9704665 1.0025462 0.92069167 0.82451427 0.97258115
1.1089146 0.95355433 1.0294117 0.98935324 0.9674899 0.9764033 1.0686537 0.95366925
0.9775337 0.98596644 0.83872706 0.8949593 0.8883307 0.8338711 0.98787767 0.9087263
1.0030737 0.9178326 0.98308253 0.9535001 0.9618019 0.92490107 1.0275779 1.0463567
0.9476087 1.0506352 0.9792628 0.83128846 0.9974983 0.9634471 0.930494 0.9587065
1.0598918 1.0054922 0.89597595 0.99165916 0.93589216 0.99513966 1.0980015 0.8961839
0.92148507 0.93286943 0.950089 0.9478867 0.9412358 0.896906 1.0091882 0.90046364
1.010781 0.9239484 0.9290721 0.83119196 1.0872393 0.97172284 1.1006255 1.0898166
1.0205995 1.0786042 1.0499481 0.99268305 1.0338838 1.0645281 0.99500734 0.9736859
0.94004595 0.9989722 0.9236739 0.88050455 0.8620574 1.0045937 0.9086767 0.8063607
1.0819765 1.0250932 0.914805 1.0456187 1.0008918 0.9828575 0.9778729 0.8396331
1.031741 0.9961615 0.84309286 1.0606124 0.8286333 1.0166873 0.9756177 0.994333
1.0304277 1.0167807 0.94489986 0.9427889 1.0464108 0.8849484 0.8793065 0.8694975
0.87193644 1.0300558 0.982348 1.029042 1.0900578 0.8811768 1.0207578 0.8980206
0.90168184 0.9280513 1.0157031 0.93193734 1.0408293 0.99943316 0.8704276 1.0487586
0.9629506 0.90922636 1.0026264 1.0284556 0.95438814 0.91225106 0.9761304 1.0725285

conv_layers.11.bias f4 [128]
00000000: b96b 22be 1e0c 00bd 0c52 c9bc e928 52bd
00000010: 1ce2 1ebd cc5d 91bd 23c2 6cbd 3c2b a0bd
00000020: 9475 85be 1a7e 09be fbd4 04be 5d88 a8bd
00000030: b9ed 25be e118 13be f349 d8bd 41cb e3bc
00000040: 7e43 9bbc dcac 1dbe 8fd2 4bbd 9947 a9bd
00000050: 0f0d 43bd cf23 01be a423 48bd 9b8e e2bd
00000060: 6421 53bd a45d b2bd 563f e1bd fec3 3dbe
00000070: b22b 3dbe 3108 8dbd 7342 1fbe 23f2 1fbe
00000080: 40ea 3dbd aadb 8c3c 9f49 f73b 9504 82bd
00000090: 2cac cfbd 3af4 54bd 87d5 c1bc e273 04be
000000a0: 56ae 3bbb b776 20be 8d79 c2bd 46fd 9cbc
000000b0: 0ac4 5abd 2b18 54bd 4234 2dbe 8473 c0bd
000000c0: 14f9 64bb ec70 7abc 9741 403c cc38 8cbd
000000d0: 0e92 adbd d3e4 12be 6a88 f7bd df89 68bd
000000e0: 6ca2 d2bd 62ae dfbd ac6f a8bd 167f f0bc
000000f0: 1fbb 3fbe 4079 3ebe 26aa 30be a3af 85bd
00000100: a93e 87bd f1e2 56be ad4f c2bd bdb1 52bd
00000110: c9d1 40be 8a68 74be e12e 13bd daa3 9ebb
00000120: 3716 aabd 25bd 17be 1b37 cabd cf4c 95bd
00000130: c254 fbbd e787 45bd 7d44 4cbe 4f2a 9fbd
00000140: 4cc0 0cbe 09d9 25be 1dc7 24be b8fc 7dbd
00000150: acb8 0fbe 4c63 03be 090c debd b239 c1bd
00000160: abec 92bd a15d 1cbd 60da 45bd e455 c8bd
00000170: 45e8 babc 10fd 0bbe cca5 60bd e4de 07be
00000180: a436 29be c1e3 91bc 6c4c 0bbe 4f62 e5bd
00000190: a95e edbd 6a99 d4bd 5065 a2bd bd14 d4bd
000001a0: cc07 acbd ddd5 1ebe 40a6 0fbe 273e d5bd
000001b0: e0a2 17be dd38 e5bd f9c8 66bd 505b babd
000001c0: 7492 c7bd c539 d2bd 6062 e4ba 2c63 7f3c
000001d0: 7fc0 1bbe 46e0 b8bd 9dec 91bc 97c8 4f3d
000001e0: 29eb f7bd e725 64bd 7b63 cabd 0d7e b0bd
000001f0: d641 24be 91db 1cbc 5500 46be 8772 4abe
-0.15861405 -0.031261556 -0.024575256 -0.051308546 -0.038789853 -0.070979685 -0.05780233 -0.07820746
-0.26066267 -0.1342701 -0.1297187 -0.08229134 -0.16203965 -0.1436496 -0.1056098 -0.02780688
-0.018953081 -0.15397972 -0.04976135 -0.08265609 -0.047619876 -0.12611316 -0.048862115 -0.11062356
-0.051545516 -0.08709267 -0.109984085 -0.18531796 -0.184737 -0.06886328 -0.15552692 -0.15619712
-0.046365976 0.017194588 0.007546618 -0.0634853 -0.10140261 -0.051990725 -0.023661388 -0.12934831
-0.0028637848 -0.15670286 -0.0949584 -0.019163739 -0.053409614 -0.05178086 -0.16914466 -0.09397033
-0.0034938501 -0.015285712 0.011734388 -0.06846771 -0.08475123 -0.14345102 -0.12086566 -0.05677211
-0.10284886 -0.10921933 -0.08224425 -0.029357474 -0.18723725 -0.1860094 -0.17252406 -0.06527641
-0.06603748 -0.20985009 -0.09487853 -0.051439036 -0.18830027 -0.23868003 -0.03593338 -0.00484131
-0.083050184 -0.14818247 -0.09873792 -0.07290041 -0.12272026 -0.04822531 -0.19948001 -0.077717416
-0.1374523 -0.16196074 -0.1609158 -0.06200859 -0.1403529 -0.12830848 -0.10842139 -0.09434833
-0.07174047 -0.03817523 -0.04830396 -0.09782007 -0.022815833 -0.13670754 -0.054845616 -0.1326862
-0.1652475 -0.017808797 -0.13603371 -0.112003915 -0.115903206 -0.10380824 -0.0792948 -0.10355518
-0.08399925 -0.1551127 -0.14028263 -0.10412245 -0.14808226 -0.111924864 -0.056344006 -0.09099448
-0.097447306 -0.10264925 -0.0017424338 0.015587609 -0.1521015 -0.09027152 -0.017813021 0.050728407
-0.121054 -0.05570021 -0.09882256 -0.08617792 -0.1604074 -0.009573833 -0.19336064 -0.19770251

conv_layers.11.running_mean f4 [128]
00000000: 7db0 28bf e7dc a8c0 9e4a 6bbf 5c51 9f3e
00000010: 8695 b4c0 ef53 24bf 5c94 8dc0 906c c1bf
00000020: 4ef6 debf d369 6c3f 08f9 3d3f 307d 6040
00000030: 3194 7940 1a6c 28c0 904b 54c0 7f56 a4bf
00000040: c6f1 e3bd c1e0 8ac0 4f33 a63e 35b6 04c0
00000050: 1049 b9bf 9b34 15c0 7929 b93e fc33 963f
00000060: d9bf 9bbf a046 aabf 55ad bd3e 2ba4 aa3f
00000070: 2232 923e 3874 c6be e4ce 70c0 0310 4bbf
00000080: c663 9fbf da5b aec0 d95d 80c0 cd1f 1dc0
00000090: f426 0ec0 5533 82c0 a98e 92bf e0fa 3d40
000000a0: 0c9e 65c0 f8b8 33bf b21a 9dbf 0a74 a5c0
000000b0: 71de 3fbd 5406 3240 9311 cbbf d275 88be
000000c0: 4449 a73e 1c54 803f ce3f a63c 3adc 1240
000000d0: f689 6fc0 245e 5e3e f3b0 4c40 0cd2 c9bf
000000e0: ec8d d3bf f3a8 143f 779f 3cbf 1b63 173f
000000f0: c6cf 10bf 0b74 4240 5120 c2bf 8a32 bcbf
00000100: fb0f a1c0 7a56 0abf 50e3 3640 b9b5 7cbf
00000110: a872 003e 4873 ecbe 2f77 f93c a0a3 9fc0
00000120: c3b1 f7bc 68d5 893f 0eae 763e 195c 95c0
00000130: 428c 84c0 52a0 abbf b3f1 b0c0 1d75 d5bf
00000140: 5553 3cc0 eef1 9c3e 1c38 2fc0 62b7 a0c0
00000150: 7676 9440 00a3 13c0 f0fa 8bbf 7235 8bbf
00000160: 5ee4 edbf 1906 a13e 5dc8 d7bf fcee a7bf
00000170: a9b8 883e 22c7 fabf bb9c 81bf 416e 6640
00000180: 0eb8 05bf 93b6 80c0 7260 cc3f 99d0 ebbf
00000190: ac28 afbf 975a 4d3e 6129 a7be b3f2 05c0
000001a0: 60b4 dbbf 8841 b2be 49fb 77be b23f 14bf
000001b0: 7244 e5bf 39ca 7dbf 449a 89c0 495a 0fc0
000001c0: 60b2 21c0 431b d7bf e69f 93bf 6718 e9bf
000001d0: 4538 bebf c76f 0cc0 259d c9be d0a3 68c0
000001e0: c505 5ebf e2d6 ae3f 54c8 44bf 4e6c f1be
000001f0: 5597 a8c0 bd00 783f 2b2b 14bf 3ffd 22c0
-0.658943 -5.2769656 -0.9191073 0.3111676 -5.6432524 -0.6419057 -4.4243603 -1.5111256
-1.7418916 0.92348975 0.74208117 3.5076408 3.89967 -2.631598 -3.317112 -1.2838897
-0.11130099 -4.339936 0.3246102 -2.073621 -1.4475422 -2.3313358 0.36164454 1.1734614
-1.2167922 -1.3302803 0.37046304 1.333135 0.28553873 -0.38760543 -3.7626276 -0.79321307
-1.2452323 -5.4487123 -4.011456 -2.455066 -2.2211275 -4.068766 -1.1449786 2.9684372
-3.5877714 -0.70204115 -1.2273772 -5.170415 -0.046842996 2.7816362 -1.5864738 -0.2665239
0.32673085 1.0025668 0.020294096 2.2946916 -3.7427955 0.217156 3.1983001 -1.5767226
-1.6527686 0.58070296 -0.73680824 0.591356 -0.5656704 3.0383327 -1.5166112 -1.4702923
-5.0332007 -0.540382 2.857624 -0.98714787 0.12543738 -0.46181703 0.030452339 -4.9887238
-0.03023613 1.0768251 0.24089834 -4.6674924 -4.1421213 -1.3408301 -5.5295043 -1.6676365
-2.9425862 0.30653328 -2.7377996 -5.0223856 4.6394606 -2.3068237 -1.0935955 -1.0875685
-1.8585317 0.31449965 -1.6858021 -1.3119807 0.26703385 -1.959202 -1.0125955 3.6004794
-0.5223397 -4.022287 1.5966933 -1.8423034 -1.3684287 0.20054089 -0.32648757 -2.0929382
-1.7164421 -0.3481562 -0.24216951 -0.5790969 -1.7911513 -0.9913669 -4.3000813 -2.2398856
-2.5265121 -1.6805195 -1.1533172 -1.8210572 -1.4860922 -2.1943223 -0.39377704 -3.6349983
-0.86727554 1.3659327 -0.76868176 -0.47152942 -5.268473 0.96876127 -0.5787837 -2.546707

conv_layers.11.running_var f4 [128]
00000000: 9015 0541 31e9 0f41 2e11 b240 2bec 4241
00000010: f804 3441 e75f 3041 e1d1 b040 445a d940
00000020: 1013 9140 5eb9 6d40 7031 a840 12c4 c440
00000030: 79bb b140 a51f b940 4a30 ba40 97ca e440
00000040: 7167 0441 7b9a 2441 dd4a 0041 90d2 5e41
00000050: 2060 ae40 6ba4 1141 cd75 c140 374a 4241
00000060: b583 a240 405d a540 9a32 b540 41ac 9e40
00000070: 6476 ad40 b584 a740 06a6 f940 3bc0 9440
00000080: f008 4841 f9a8 5041 64da 2341 e203 5d41
00000090: 9616 1541 97bf b240 959e 3541 4a50 a940
000000a0: 8892 0841 e372 5740 820b 2241 57f0 5d41
000000b0: 30da 9b40 7118 ad40 c871 7e40 ffb6 8140
000000c0: bfc2 d140 ac21 8840 226e 2641 e7cf f440
000000d0: 925e b140 9f1b 0e41 e59b ad40 d000 bb40
000000e0: fb6b aa40 c18e 4241 7728 8a40 fee3 1441
000000f0: 3d57 ae40 b458 9d40 dded 9340 d47d dd40
00000100: af32 aa40 1252 7040 c4a1 de40 9a0c 2041
00000110: 5fd1 a040 7c79 8940 74b6 c440 53ab 2641
00000120: beb1 e640 b04d 2e41 fad9 8040 8116 d440
00000130: d06a ec40 b282 eb40 869b 1341 0766 1b41
00000140: d0be ba40 3665 6b40 a82b 5441 67da 2441
00000150: 5aec d540 6c74 a940 032b a240 758b 2a41
00000160: 2dfc cf40 9f5f 1241 41eb 4c41 4ff2 e140
00000170: 86e2 2341 83fb 7640 c5c6 1d41 5577 6e40
00000180: fae4 9140 0d32 3741 aa90 cc40 3f36 c040
00000190: 95a7 cb40 fd08 9e40 cec2 0141 3d58 bd40
000001a0: f82f 9240 f72a 8840 5433 9e40 8a9b c740
000001b0: 30a3 c740 cf8c 1a41 46af 1341 2f22 3141
000001c0: 6e02 f140 7a66 1d41 b7fa e340 2b4f 1541
000001d0: 0557 8c40 66d2 d640 f53e 9440 d4aa 0c41
000001e0: 82cc e040 3309 0541 017c 4e41 30c3 b640
000001f0: bce2 3841 5670 f440 8c66 9040 4b7e be40
8.317764 8.9944315 5.564597 12.182658 11.251213 11.023414 5.52562 6.7922688
4.533577 3.714439 5.256035 6.1489344 5.554135 5.785113 5.8183947 7.14973
8.275254 10.287715 8.018277 13.926407 5.449234 9.102641 6.04563 12.143119
5.0785775 5.167633 5.662427 4.958527 5.420702 5.2349496 7.8015165 4.6484656
12.502182 13.041253 10.240818 13.813448 9.318014 5.5858874 11.351216 5.291051
8.535774 3.3663871 10.12781 13.871177 4.870384 5.4092336 3.9756947 4.0535884
6.5550227 4.2541103 10.401888 7.6503787 5.542794 8.881743 5.42528 5.843849
5.325681 12.159852 4.3174396 9.305662 5.448149 4.917078 4.622786 6.92161
5.318687 3.7550092 6.957247 10.003077 5.025558 4.2960796 6.147272 10.416827
7.209197 10.893967 4.0266085 6.627747 7.3880386 7.359704 9.22547 9.712409
5.8357925 3.6780524 13.260658 10.303321 6.6851015 5.2954617 5.0677505 10.659047
6.499533 9.148345 12.807435 7.0608287 10.242804 3.859101 9.861028 3.7260334
4.5592012 11.449719 6.392659 6.006622 6.364207 4.938597 8.11006 5.9170213
4.5683556 4.2552447 4.9437656 6.2377367 6.2386703 9.659377 9.230291 11.070846
7.5315466 9.837519 7.124355 9.331828 4.3856225 6.7131834 4.632685 8.791706
7.0249643 8.314746 12.905274 5.7113266 11.555355 7.638713 4.512518 5.9529166
